sample/ur_reach/sample/ur5_reach_policy.pt (torch, 35672 bytes, 6 tensors)

weight f4 [64, 28]
0	0x3eaccadb	0.33748516
1	0x3f83f0a3	1.0307811
2	0xbdad4f06	-0.08462338
3	0x3f17d4ab	0.5930888
4	0xbd940ff2	-0.07229604
5	0x3e846569	0.2585862
6	0xbdbcb2b8	-0.092137754
7	0x3eb2d77f	0.34930035
8	0x3e3852dc	0.18000358
9	0x3cfcbe12	0.030852351
10	0x3d82545c	0.063637465
11	0x3d2748ce	0.040840916
12	0x3e1bc875	0.15213187
13	0x3d1c19ba	0.038110472
14	0x3dd4462a	0.10364945
15	0xbc684560	-0.014176697
16	0x3e152e1d	0.14568372
17	0x3ce4d44a	0.027933259
18	0xbd9b121a	-0.07571812
19	0x3e2b7f3a	0.16747752
20	0xbe0a83f4	-0.13526899
21	0xbd25de13	-0.04049499
22	0xbd5dc2e0	-0.054140925
23	0x3e000520	0.12501955
24	0xbe4a8434	-0.19776994
25	0xbdd9a2c0	-0.10626745
26	0xbe38799e	-0.18015143
27	0xbd778799	-0.06043205
28	0xbf7f0d5e	-0.9962977
29	0xbf9bb1bb	-1.2163614
30	0x3e9b83f8	0.30374122
31	0xbeb3deeb	-0.3513101
32	0xbf28e3c3	-0.65972537
33	0x3f2191e6	0.6311325
34	0x3bb1230d	0.0054057897
35	0x3db8ac2e	0.09017216
36	0x3d505546	0.050862573
37	0xbbe2697f	-0.006909549
38	0x3c59025b	0.0132451905
39	0xbd38476f	-0.04499
40	0xbdd3476d	-0.10316358
41	0xbe521ae7	-0.20518075
42	0xbd98575a	-0.07438536
43	0x3c72202f	0.014778181
44	0x3ddfbac9	0.10924298
45	0xbda9338b	-0.08261784
46	0xbd37bb21	-0.044856194
47	0xbda1e579	-0.079050966
48	0xbdcee34e	-0.10101949
49	0xbce12b27	-0.027486397
50	0xbe2ae1c4	-0.16687685
51	0xbde12bc3	-0.10994675
52	0xbdf1d855	-0.1180884
53	0x3d4c3891	0.049858633
54	0xbdd7e01b	-0.105407916
55	0x3e9497d2	0.2902208
56	0xbebe1d95	-0.37131944
57	0x3e37f247	0.17963515
58	0x3f8ef31a	1.1167939
59	0xbe6e7bf7	-0.23289476
60	0xbebb87d5	-0.3662707
61	0xbed58f28	-0.41710782
62	0xbdda183d	-0.10649154
63	0xbe41fef4	-0.18944913
64	0xbd3b8bd6	-0.045787655
65	0x3cd7664e	0.0262939
66	0xbc93f529	-0.018061237
67	0x3caae884	0.020862825
68	0xbd8cb672	-0.06870736
69	0xbd8cbb50	-0.068716645
70	0x3e5b1bd6	0.21397337
71	0x3ddb19ed	0.10698304
72	0x3e3a3670	0.18184829
73	0xbe1fb4a6	-0.15596256
74	0xbe12e266	-0.14344177
75	0xbd641bb0	-0.055690467
76	0xbbd998af	-0.0066405158
77	0x3e0c4524	0.1369825
78	0x3dd4e6d7	0.10395592
79	0x3e0c71ce	0.13715288
80	0xbd28758e	-0.041127734
81	0xbe24c7ee	-0.16091892
82	0xbe039fc6	-0.12853917
83	0xbdf22496	-0.118233845
84	0x3dab1e23	0.083553575
85	0x3e1f1f31	0.15539242
86	0x3dbbeca0	0.09175992
87	0xbf8c84f2	-1.0978072
88	0xbe3d8a16	-0.18509707
89	0x3f052661	0.52011687
90	0x3d87e7d0	0.066360116
91	0xbda5505a	-0.080719665
92	0x3dda2606	0.10651784
93	0x3d966291	0.07343019
94	0xbceb71ef	-0.028740851
95	0xbda2e158	-0.07953137
96	0x3e313e1b	0.17308848
97	0xbd828053	-0.06372132
98	0xbd891bf5	-0.066947855
99	0xbe3b340b	-0.18281572
100	0xbddda4ce	-0.108224496
101	0x3d415da7	0.047208454
102	0xbccbfccc	-0.024900816
103	0xbe789097	-0.24273907
104	0xbc7695c5	-0.015050356
105	0xbdc94028	-0.0982669
106	0xbe13f947	-0.1445056
107	0x39d932ae	0.00041427225
108	0xbe602da0	-0.21892405
109	0xbe81159e	-0.25211805
110	0x3e4e60a6	0.20154056
111	0x3e81271b	0.25225148
112	0x3fcca7fc	1.5988765
113	0x3e29ec20	0.16593981
114	0xbf40d5af	-0.75326055
115	0xbf3c7f1d	-0.7363146
116	0x3eba0da3	0.3633853
117	0x3f03eb4a	0.515309
118	0xbe3a2895	-0.18179543
119	0xbdfbe98c	-0.12300405
120	0xbd1dde7e	-0.038542263
121	0x3d7ca307	0.061678912
122	0xbc8e5887	-0.017376198
123	0xbd3243fb	-0.043521862
124	0xbd5f64ce	-0.054539494
125	0xbd0fb289	-0.035082374
126	0x3c2b8c7f	0.010470509
127	0xbd977fd5	-0.07397429
128	0x3e224244	0.15845591
129	0xbd19a014	-0.037506178
130	0x3e737dba	0.2377843
131	0x3d78b8c2	0.060723074
132	0x3cd1ef93	0.025626933
133	0x3e4d436b	0.20045249
134	0x3d1c1aaf	0.038111385
135	0x3d25a8f9	0.040444348
136	0xbe1fb715	-0.15597184
137	0xbd9abfcc	-0.075561136
138	0x3e5efbf6	0.21775803
139	0x3e1e2046	0.15441999
140	0xbe51237b	-0.20423691
141	0xbf5c6d5c	-0.8610437
142	0x3e465729	0.19369186
143	0x3e63e1a5	0.22254045
144	0xbf64643b	-0.8921544
145	0x3fbd8817	1.4807156
146	0x3d2b44f9	0.041813824
147	0x3e2dfe72	0.16991594
148	0xbc9fb55c	-0.019495659
149	0x3d0af742	0.03392721
150	0x3ca95a2c	0.02067288
151	0xbddcd041	-0.10781909
152	0x3d82fd82	0.06396009
153	0xbd689375	-0.05678125
154	0x3e837c3b	0.25680718
155	0xbd5d526f	-0.054033693
156	0x3dceda07	0.10100179
157	0x3d880507	0.06641584
158	0x3e15965e	0.14608142
159	0x3da7e86d	0.081986286
160	0xbd9d014d	-0.07666264
161	0xbda177dd	-0.0788419
162	0xbe2a4c30	-0.16630626
163	0xbe5ed79d	-0.21761937
164	0xbda44fe5	-0.08023051
165	0x3e04e160	0.12976599
166	0xbeb1c7ff	-0.34722897
167	0x3ea413cf	0.32046363
168	0xbf7bab1f	-0.98307985
169	0xbfb32b3b	-1.3997568
170	0xbd65b38b	-0.05607943
171	0x3f2b4ae4	0.6691115
172	0xbe02a169	-0.12756886
173	0x3e79df97	0.24401699
174	0xbd1e8fbe	-0.038711302
175	0xbdc42f8c	-0.09579381
176	0xbe1803ec	-0.14845246
177	0xbb571df9	-0.0032824262
178	0x3dc73746	0.097273394
179	0xbdb14dbf	-0.08657407
180	0xbcefe4dc	-0.029283933
181	0x3cc8547e	0.024454352
182	0xbd1f5404	-0.038898483
183	0xbe0fd9d5	-0.1404794
184	0x3dca029c	0.09863779
185	0x3dcb646f	0.099312656
186	0xbb24b575	-0.002513257
187	0xbd83cfd9	-0.06436128
188	0xbe062c81	-0.13102914
189	0x3d7234a0	0.05913222
190	0xbdc60a91	-0.09669984
191	0xbe7c83f9	-0.24659719
192	0x3e856206	0.26051348
193	0x3e7009d1	0.23441245
194	0xbe160f97	-0.14654385
195	0xbc76a71a	-0.015054489
196	0xbe3787d5	-0.1792291
197	0x3ecb9f80	0.39770126
198	0x3e1839b5	0.14865763
199	0x3ec89bae	0.39181274
200	0xbf195e49	-0.5990949
201	0x3e8a0452	0.2695642
202	0x3e32d977	0.17465769
203	0x3e674426	0.2258459
204	0x3d5cea43	0.053934347
205	0x3d83adce	0.06429635
206	0x3ccd7e8c	0.025084756
207	0xbe309ebf	-0.17248057
208	0xbddc74cd	-0.107644655
209	0x3c9197f4	0.017772652
210	0x3d9876e8	0.074445546
211	0x3d28cfe0	0.04121387
212	0xbe2b0f15	-0.16704972
213	0xbde8bfaa	-0.11364682
214	0xbd9b5e77	-0.07586377
215	0x3ee27de2	0.44236666
216	0xbd9fcf4c	-0.078032106
217	0x3cf4e524	0.029894419
218	0xbe1396d8	-0.14413011
219	0xbdffa132	-0.124819174
220	0xbe5ac162	-0.21362832
221	0x3e05f0e5	0.13080175
222	0xbd850600	-0.06495285
223	0x3d84c449	0.06482751
224	0xbf4c5331	-0.7981444
225	0x3f22743d	0.63458616
226	0x3f07e00d	0.5307625
227	0x3f071fb7	0.5278277
228	0x3e8dd022	0.27697855
229	0xbdab2775	-0.08357135
230	0x3d88c722	0.066786066
231	0x3ecdfaff	0.40230557
232	0x3c1b0dc2	0.009463729
233	0x3e2f45a0	0.17116404
234	0xbbae1cf1	-0.0053135087
235	0xbde8ae9b	-0.11361428
236	0x3d87b157	0.06625622
237	0xbd9adcbd	-0.07561634
238	0xbdc01fa0	-0.09381032
239	0xbdde86d4	-0.1086556
240	0x3d9e700a	0.077362135
241	0xbdbe05a8	-0.092784226
242	0x3cf66008	0.030075088
243	0x3cb8073a	0.022464383
244	0x3e53f04b	0.20697133
245	0x3cbc376a	0.022975642
246	0xbd77f41e	-0.060535543
247	0xbe3f4f4b	-0.18682592
248	0xbdaebbda	-0.085319236
249	0xbb8b975e	-0.0042599877
250	0xbe16691b	-0.14688532
251	0xbe35ffe0	-0.1777339
252	0x3ee18389	0.44045666
253	0xbef8f8e9	-0.48627403
254	0xbe9ce54a	-0.30643684
255	0x3ea37d76	0.31931657

bias f4 [64]
0	0xbe230189	-0.15918554
1	0x3c53938e	0.012913598
2	0x3cf2a7f8	0.02962111
3	0xbdbf4608	-0.09339529
4	0x3c2948f4	0.010332335
5	0xbd80ca5b	-0.06288596
6	0x3d982c9a	0.07430382
7	0xbdb234f4	-0.08701506
8	0xbd1c0adb	-0.03809629
9	0xbdd476fa	-0.103742555
10	0x3e03a111	0.1285441
11	0xbcbd0b96	-0.023076814
12	0xbc6a8865	-0.014314746
13	0xbde9848d	-0.11402235
14	0xbca74819	-0.020420121
15	0x3d3df720	0.046378255
16	0x3e0aea74	0.13566
17	0xbe1b446b	-0.15162818
18	0xbd12fcb5	-0.03588553
19	0xbe58474c	-0.21120948
20	0xbe0ec5cd	-0.13942643
21	0x3e47e7f7	0.19522081
22	0x3d8162c4	0.06317666
23	0x3e2223af	0.15833925
24	0xbc2aa5ed	-0.010415536
25	0xbe05a2ff	-0.1305046
26	0xbe215130	-0.15753627
27	0x3dcff746	0.101545855
28	0xbdee7c3e	-0.11644791
29	0x3d17e2f0	0.03708166
30	0xbcd4e7e7	-0.025989486
31	0xbca80766	-0.02051134
32	0x3d883ee2	0.06652619
33	0xbc4177a5	-0.011808311
34	0x3cea9c30	0.02863893
35	0xbd726db1	-0.05918664
36	0x3d189297	0.037249174
37	0x3d765dc8	0.06014803
38	0x3e150e7a	0.14556304
39	0xbd4a921b	-0.049455743
40	0xb84beaa4	-4.8617498e-05
41	0xbe07edc3	-0.13274293
42	0x3d7d0b49	0.06177834
43	0xbdc0e64e	-0.09418927
44	0xbccc4c2c	-0.024938665
45	0x3cc9af5e	0.024619754
46	0x3d5484fe	0.051884644
47	0xbd91b21a	-0.07114048
48	0xbce689f5	-0.028141955
49	0x3dbbcbe4	0.091697484
50	0x3d563432	0.05229587
51	0xbd963c7a	-0.07335754
52	0xbe176dd5	-0.14787991
53	0xbd07c205	-0.033144016
54	0x3d3ae2fb	0.04562662
55	0x3d4f5c74	0.05062528
56	0x3e0f2b98	0.13981473
57	0xbe4cb524	-0.19990975
58	0x3d9470cc	0.07248077
59	0xbd858e06	-0.065212294
60	0x3dbbfc1b	0.09178945
61	0x3d9b7cfa	0.07592197
62	0xbc6d12d6	-0.014469823
63	0x3e2ef0ee	0.17084095

weight f4 [64, 64]
0	0xbd75a5dc	-0.05997263
1	0xbd888edf	-0.066678755
2	0xbd897eb9	-0.067136236
3	0x3dbb4b5b	0.09145232
4	0x3d612750	0.054969132
5	0xbdbf73c3	-0.09348252
6	0x3d07989d	0.033104528
7	0x3d34cd99	0.044141386
8	0xbdad3952	-0.084581986
9	0x3d63b4a1	0.055592183
10	0x3d20fec6	0.03930547
11	0x3cd8b677	0.026454194
12	0x3d9bd049	0.076080866
13	0x3ddeaf75	0.108733095
14	0x3daa22c5	0.08307413
15	0xbca9af84	-0.020713575
16	0x3ce94f33	0.028480148
17	0xbd0d74a5	-0.03453507
18	0xbdf64791	-0.12025369
19	0xbd3f0eb1	-0.04664487
20	0xbdfbd731	-0.12296904
21	0x3d13c999	0.03608093
22	0x3d91462b	0.070934616
23	0xbd8ccb4b	-0.068747126
24	0xbdddb387	-0.10825258
25	0x3c34861b	0.011018301
26	0x3d77d3f0	0.060504854
27	0x3d2d5f1b	0.042327028
28	0x3d538a2b	0.05164544
29	0x3c3dc6f9	0.011583083
30	0x3d0cfd35	0.034421165
31	0x3d1e47b0	0.038642585
32	0x3d169ff8	0.03677365
33	0xbd92354b	-0.07139071
34	0x3d687919	0.056756113
35	0x3dca504e	0.09878598
36	0xbc2705b4	-0.010194231
37	0x3bb09e7b	0.005389986
38	0xbd3062d4	-0.043063
39	0xbd37917d	-0.044816483
40	0x3da0b722	0.0784743
41	0xbc3b208b	-0.011421333
42	0x3dec4b04	0.115377456
43	0xbd538306	-0.051638626
44	0x3d880dc4	0.066432506
45	0xbd6ba137	-0.057526793
46	0xbd8f45e2	-0.06995751
47	0xbccd3a0f	-0.025052099
48	0x3dc62272	0.09674539
49	0x3da7e49a	0.08197899
50	0xbd9cca6f	-0.07655799
51	0xbd698f94	-0.057021692
52	0xbdbd80c1	-0.092530735
53	0xbc99bee4	-0.018767782
54	0xbdfe4f4f	-0.12417471
55	0xbd24b35c	-0.040210113
56	0x3d68aea9	0.056807194
57	0xbcb93879	-0.022609936
58	0xbdfe7536	-0.124247
59	0x3d40bd8b	0.047055762
60	0x3d28a489	0.041172538
61	0x3c9fa931	0.019489856
62	0x3e0062e4	0.12537724
63	0xbdd12e29	-0.102138825
64	0xbd8e43ad	-0.06946502
65	0xbcb3247c	-0.021867983
66	0xbc3ea8f9	-0.011636966
67	0x3c87c4f8	0.016573414
68	0x3dfe118b	0.1240569
69	0x3e00bf1b	0.12572901
70	0x3df974b9	0.12180466
71	0x3d484427	0.04889312
72	0x3d99c84d	0.075089075
73	0x3dce0393	0.100592755
74	0xbd27b2c3	-0.040941965
75	0x3d126e87	0.03574994
76	0x3e5008f1	0.20315911
77	0x3dd920a8	0.10601932
78	0xbd739d54	-0.05947621
79	0x3ca6fec0	0.020385146
80	0x3e01e025	0.1268316
81	0xbc43892d	-0.011934561
82	0x3e1344ee	0.14381763
83	0xbc558905	-0.013033156
84	0x3d927b83	0.07152464
85	0xbd820f29	-0.06350548
86	0x3d101c6d	0.03518336
87	0x3d4dda1b	0.05025683
88	0x3c4eefe1	0.012630434
89	0x3d84fa40	0.06493044
90	0xbde1ef55	-0.11031977
91	0x3e044b89	0.1291944
92	0x3d594fc6	0.053054594
93	0xbd9ef4b3	-0.077615164
94	0x3d3d36e1	0.046194915
95	0x3c41735a	0.011807287
96	0x3e0651da	0.13117161
97	0x3e06e8ce	0.13174745
98	0xbc87be18	-0.016570136
99	0xbda8ca93	-0.08241763
100	0xbcc85faf	-0.024459688
101	0x3c6e514a	0.014545748
102	0x3e0bb971	0.13644959
103	0x3d8fd6f8	0.07023424
104	0xbcdb2a64	-0.026753612
105	0x3d3e4fbe	0.046462767
106	0xbcfca0c3	-0.030838376
107	0xbd562091	-0.05227715
108	0x3c200518	0.009766839
109	0xbd61798e	-0.055047564
110	0xbe26cf04	-0.16289908
111	0x3e0a95f2	0.13533762
112	0x3df182be	0.11792515
113	0x3d3cb1d5	0.04606803
114	0xbb0124f3	-0.0019705861
115	0x3c85c89f	0.016331015
116	0xbd2ad4b8	-0.04170677
117	0xbcdc2f4e	-0.026878025
118	0xbbaf6c6e	-0.005353502
119	0x3dd3a567	0.10334282
120	0xbdb67c02	-0.08910371
121	0x3d8a0cd9	0.06740732
122	0x3d976091	0.073914655
123	0xbc426d5e	-0.0118668955
124	0x3d2855cb	0.041097444
125	0x3d9d0a5e	0.07667993
126	0x3dae600e	0.08514415
127	0x3df00af6	0.11720841
128	0x3db23a62	0.08702542
129	0xbcedae1f	-0.029013691
130	0xbe461f4a	-0.19347873
131	0x3e1c9e12	0.15294674
132	0xbd164b67	-0.036693003
133	0x3cafe022	0.02146918
134	0x3d690b10	0.056895316
135	0x3e1e8457	0.15480171
136	0x3e83496c	0.25641954
137	0xbd940e9c	-0.07229349
138	0x3c10cbe8	0.008837678
139	0xbdcbaca3	-0.09945037
140	0xbe43cee9	-0.19121899
141	0x3cb47fd3	0.022033608
142	0x3c795fb6	0.015220573
143	0xbe669aa5	-0.2251993
144	0xbcbbf409	-0.022943513
145	0xbc8d026e	-0.017213073
146	0x3d9c320d	0.07626734
147	0xbb7b74aa	-0.0038369098
148	0xbd6e2e74	-0.05814977
149	0xbe01488e	-0.12625334
150	0xbdc2939e	-0.09500812
151	0x3d355a89	0.044275794
152	0x3d85f59c	0.06540987
153	0xbe227787	-0.15865909
154	0xbd839474	-0.064247996
155	0xbdbee6d1	-0.093213685
156	0x3c9157f0	0.017742127
157	0xbc809932	-0.01569805
158	0xbd054939	-0.032540534
159	0xbe0469ee	-0.12931034
160	0x3da6c7e7	0.08143597
161	0xbdb00495	-0.08594624
162	0xbcc6dab7	-0.024274213
163	0x3d15b1a4	0.036546364
164	0xbdc58cd3	-0.09646001
165	0xbd55013a	-0.052003123
166	0x3e40b5b1	0.1881931
167	0x3bb242ca	0.005440091
168	0x3e17e007	0.14831553
169	0x3e235f5c	0.15954345
170	0xbe02071d	-0.12698026
171	0x3d9b48e4	0.07582262
172	0xbce39178	-0.027779326
173	0x3cda7e0c	0.026671432
174	0x3d71b49e	0.05901014
175	0x3decd226	0.1156352
176	0xbd99eaeb	-0.0751551
177	0xbcfb55fb	-0.030680647
178	0xbdfe3836	-0.12413065
179	0x3da42009	0.08013923
180	0xbdf08f88	-0.117461264
181	0xbd97ec1a	-0.0741808
182	0x3e1d8787	0.15383731
183	0x3e3ee342	0.1864138
184	0xbdd3c2b3	-0.1033987
185	0xbdbd6111	-0.092470296
186	0xbdd8b31c	-0.105810374
187	0xbe049722	-0.12948278
188	0xbcecb3ad	-0.02889427
189	0x3bcf295e	0.00632207
190	0x3dff9988	0.12480456
191	0x3dd9e8df	0.1064012
192	0xbd7ec71a	-0.062201597
193	0x3a92ba4d	0.0011194438
194	0xbcad7eda	-0.021178652
195	0x3d7d81ed	0.061891485
196	0xbca30c5e	-0.019903358
197	0x3bcc86ea	0.006241669
198	0x3d071032	0.03297443
199	0xbd0717cf	-0.03298169
200	0xbd889a4d	-0.066700555
201	0xbd160503	-0.036625873
202	0xbe815524	-0.2526027
203	0xbe8df9c6	-0.27729625
204	0x3cb1b0d2	0.02169076
205	0x3dde2f34	0.10848847
206	0xbbe9b135	-0.0071317204
207	0xbdbcc3f7	-0.09217065
208	0x3e3091b8	0.17243087
209	0x3c51f534	0.012814809
210	0xbcd5d2f3	-0.026101565
211	0x3d96946a	0.073525265
212	0x3d945635	0.07243005
213	0x3c075cfa	0.008261913
214	0xbd7ca3f2	-0.061679788
215	0xbd69dd1f	-0.057095643
216	0xbe31500e	-0.17315695
217	0x3e559652	0.20858124
218	0x3dc793e1	0.097450025
219	0x3d266518	0.040623754
220	0xbcb0f122	-0.021599356
221	0x3d98b3c5	0.07456163
222	0xbe145cc5	-0.14488514
223	0xbc8ef68e	-0.01745155
224	0xbe0f2de1	-0.13982345
225	0x3e2d26c2	0.16909316
226	0x3d39275c	0.04520355
227	0xbe2f67f0	-0.17129493
228	0x3dedbb32	0.1160797
229	0x3d6434c7	0.055714395
230	0x3ccd0307	0.025025858
231	0xbe249ed3	-0.16076212
232	0x3e0535cc	0.13008803
233	0xbdd59239	-0.104282804
234	0xbc9026db	-0.017596653
235	0xbe3d75ae	-0.18501922
236	0x3dc2f764	0.09519842
237	0x3d2e1f05	0.04251005
238	0x3dc7a79a	0.09748764
239	0xbc04b504	-0.008099798
240	0x3d194bb7	0.037425723
241	0xbd86e5f7	-0.06586831
242	0xbbbb2cdd	-0.005712135
243	0xbd3e0962	-0.046395667
244	0x3e069d4c	0.13145941
245	0x3bece1f4	0.007229084
246	0xbd99e52e	-0.07514416
247	0x3cf24c62	0.029577438
248	0xbe06ef40	-0.13177204
249	0x3d9f1b25	0.07768849
250	0x3dbbc9bc	0.09169337
251	0x3da89f03	0.08233454
252	0x3cf2f82b	0.029659351
253	0x3bd703e3	0.0065617426
254	0xbda9fa55	-0.082997
255	0x3c642344	0.013924424

bias f4 [64]
0	0x3c90f78d	0.017696166
1	0x3d87cef6	0.066312715
2	0xbdbbeb3b	-0.09175726
3	0xbe371fc6	-0.17883214
4	0xbd71edaf	-0.059064563
5	0xbbfd6163	-0.0077325567
6	0xbd9887a3	-0.07447746
7	0x3bf317b5	0.0074185976
8	0xbd84f0a2	-0.064912096
9	0xbd5343ad	-0.051578213
10	0xbd7f02e3	-0.062258612
11	0xbe84a193	-0.2590452
12	0xbce45bba	-0.02787577
13	0xbcd21807	-0.025646223
14	0xbe591d30	-0.2120254
15	0x3d36a3f2	0.044589944
16	0x3c66e84f	0.014093473
17	0xbc6342c6	-0.0138709005
18	0x3d39d217	0.045366373
19	0xbd24d562	-0.04024256
20	0xbdfc79d9	-0.12327928
21	0x3cda4621	0.026644768
22	0xbd33b6ab	-0.043875378
23	0xbd32dce8	-0.043667704
24	0xbcb7a108	-0.022415653
25	0xbd025b11	-0.03182513
26	0x3d2d0c87	0.042248275
27	0xbd3ced22	-0.046124585
28	0x3cda4139	0.026642429
29	0xbd1d9514	-0.03847225
30	0xbab27121	-0.0013614037
31	0x3d1282ad	0.035769153
32	0xbc9762bc	-0.018479697
33	0x3ce8bb5e	0.028409656
34	0xbbe7eeb5	-0.0070780166
35	0xbd220507	-0.039555576
36	0x3d0145c5	0.031560678
37	0xbde90231	-0.11377371
38	0xbc2cbfc8	-0.010543771
39	0xbd8aae69	-0.06771547
40	0xbdbef06d	-0.09323201
41	0xbd3d2525	-0.046178002
42	0xbd87e9b4	-0.06636372
43	0xbc8495c5	-0.016184697
44	0xbcc7b22f	-0.024376957
45	0xbd337aee	-0.043818407
46	0x3cd44677	0.025912507
47	0xbe4008a6	-0.18753299
48	0x3a54f919	0.00081242766
49	0x3cf857c2	0.030315284
50	0x3d61f11f	0.05516159
51	0x3c0ae1ed	0.0084767165
52	0xbd3dd95d	-0.046349872
53	0x3c392062	0.011299225
54	0x3cc14788	0.02359368
55	0xbd62a77d	-0.05533551
56	0xbd30e4bf	-0.0431869
57	0x3c978def	0.018500296
58	0xbd497823	-0.049186837
59	0xbc67c3f7	-0.014145843
60	0x3d3882e8	0.045046717
61	0xbc327b50	-0.010893658
62	0xbd5d7cc4	-0.054074064
63	0xbc9223d5	-0.017839352

weight f4 [6, 64]
0	0x3795abe7	1.7842232e-05
1	0xb8c8e6b0	-9.579712e-05
2	0xbd942d0b	-0.07235154
3	0x3ccbb984	0.024868734
4	0xbde464a4	-0.11152008
5	0xb90934f2	-0.00013085062
6	0x3919fd98	0.00014685688
7	0x38581588	5.1518466e-05
8	0x388531aa	6.351185e-05
9	0xbcc69941	-0.024242999
10	0x3d18dc6c	0.037319586
11	0xbdb1f54f	-0.08689367
12	0x363265bc	2.6583284e-06
13	0x396ba1ba	0.00022471594
14	0xbd0eb460	-0.034839988
15	0x3912c6d0	0.00013997708
16	0x38210ae1	3.8395523e-05
17	0xb95202f6	-0.00020028264
18	0x38dddd1b	0.00010579285
19	0xb88da160	-6.7534624e-05
20	0xbcdc14ed	-0.026865447
21	0xb9815180	-0.0002466552
22	0x3807f2d5	3.2412663e-05
23	0xb8aec2e8	-8.333271e-05
24	0x394a0cc8	0.00019268983
25	0x37df883a	2.6647107e-05
26	0xb9d26bcf	-0.00040134645
27	0xb83b8f39	-4.471766e-05
28	0x39a58c53	0.00031575802
29	0xb7533ef2	-1.2591236e-05
30	0xb97b135f	-0.00023944442
31	0xb89e52f3	-7.5494776e-05
32	0x3897bf5d	7.235885e-05
33	0x3887ae91	6.469817e-05
34	0x38171bd4	3.6027122e-05
35	0x3921a2c6	0.00015414794
36	0x381c5ed0	3.72816e-05
37	0x3d27c910	0.040963233
38	0xb87b3c41	-5.989918e-05
39	0x39b5d73d	0.00034683375
40	0x3e0caecd	0.13738556
41	0x38b4478e	8.596397e-05
42	0xbbff9eba	-0.007800904
43	0x395c3f72	0.0002100447
44	0x37fd798a	3.0216546e-05
45	0x380c1752	3.340032e-05
46	0x396fc0c1	0.00022864623
47	0xbe7b91d2	-0.24567345
48	0xb7d5b66d	-2.5476527e-05
49	0xb9868168	-0.00025654887
50	0x3e591b60	0.21201849
51	0xb75d0d1b	-1.3175678e-05
52	0x392d4b26	0.0001652656
53	0xb89768ac	-7.219738e-05
54	0xbc6555b2	-0.013997482
55	0xb96c050c	-0.00022508594
56	0x37d82be6	2.5769648e-05
57	0x38addc40	8.2903076e-05
58	0x3aad0eac	0.0013203225
59	0x383f162b	4.5558594e-05
60	0xb775c9a3	-1.4650085e-05
61	0x38e59661	0.00010947581
62	0xb9a6d9e4	-0.00031824328
63	0x377a3d3e	1.491542e-05
64	0xbb8b7f0b	-0.004257088
65	0xba97b9a6	-0.0011575713
66	0xbdd33898	-0.10313529
67	0xbdc6eda0	-0.09713292
68	0x3a4f9c10	0.00079196785
69	0x3ae6c6e3	0.001760688
70	0x3b562a92	0.0032679182
71	0x3a5a0a9c	0.0008317621
72	0x387d2cf2	6.036176e-05
73	0xbc8b2714	-0.016986407
74	0x3e22ce53	0.15899019
75	0xbe27ebb9	-0.16398515
76	0x3aa1f045	0.0012354931
77	0x38fc9aa2	0.00012045099
78	0xbdedd3be	-0.11612652
79	0xb89c1f70	-7.444515e-05
80	0xbac37864	-0.0014913199
81	0x3a95aa62	0.0011418576
82	0x3b5240d6	0.0032082102
83	0xb935e5ef	-0.00017347162
84	0xbb992ee7	-0.0046747806
85	0xbb59f9b3	-0.0033260405
86	0xbad63689	-0.0016343157
87	0x3a99479a	0.0011694313
88	0xba79c5f2	-0.00095280923
89	0x3b22b6fe	0.002482831
90	0xbba589f8	-0.0050518475
91	0xbad9a1f3	-0.0016604051
92	0x3b424c63	0.002964758
93	0x39e54b99	0.00043734608
94	0x3af84869	0.0018942478
95	0xbbb08f67	-0.0053881886
96	0x3b0a8879	0.0021138473
97	0xba8aa6d3	-0.0010578282
98	0xb9ca8ee8	-0.00038634916
99	0xb97dd3cb	-0.00024206859
100	0x39922a82	0.0002787896
101	0x3d9fc51e	0.07801269
102	0x3ab3dfa5	0.0013723267
103	0x3b57b9cd	0.0032917142
104	0xbde0dcd1	-0.109796174
105	0x3986052a	0.0002556232
106	0x3d9ccefa	0.07656665
107	0x3b28596c	0.0025688065
108	0x3a80906a	0.0009808664
109	0x3b1d6fa9	0.0024022853
110	0x3a9216c2	0.0011145698
111	0x3c2bf5a8	0.010495581
112	0xba3817ef	-0.00070226094
113	0xb9d74e37	-0.0004106627
114	0xbbdeb0b7	-0.0067959684
115	0xba63f53d	-0.0008695906
116	0x3a397019	0.0007073894
117	0x3adaecb2	0.0016702621
118	0xbc2e7cd0	-0.010649875
119	0xbb5fe0ec	-0.0034161163
120	0x3b1c95a0	0.0023892894
121	0x3a52738a	0.0008028081
122	0x3baddf70	0.005306177
123	0xba0851f4	-0.00052002
124	0xbab97d6d	-0.001415176
125	0xb990e914	-0.00027639477
126	0x3b21b806	0.0024676337
127	0xb97e8f9e	-0.00024276829
128	0x3af7a7ee	0.0018894651
129	0x3af537c8	0.0018708641
130	0xbd00c331	-0.03143615
131	0x3e00f4ee	0.12593433
132	0xbd7339d0	-0.059381306
133	0xbb1f8d51	-0.0024345706
134	0xbb13cef3	-0.0022553771
135	0xba43ddf1	-0.00074717315
136	0x3abc9365	0.0014387189
137	0x3cabf66e	0.02099153
138	0xbd826961	-0.06367756
139	0x3d8317ed	0.06401048
140	0x3b1bb925	0.0023761478
141	0x3be29bb1	0.0069155325
142	0x3dfe3f93	0.124144696
143	0xbb93d00e	-0.004510886
144	0x3b172ec9	0.0023068658
145	0xba4790ee	-0.0007612844
146	0x3c3c7874	0.011503328
147	0xba96045e	-0.0011445393
148	0xbc32d0b2	-0.010914015
149	0xbb2d7324	-0.0026466334
150	0xb9e96686	-0.0004451761
151	0x3a41326c	0.0007369879
152	0x3aaeb227	0.001332824
153	0x3a0bc508	0.0005331789
154	0x3a863306	0.0010238595
155	0xbb0d3afa	-0.0021550045
156	0xbb8947a5	-0.004189449
157	0xba3e852a	-0.0007267768
158	0xbba0dd9b	-0.00490923
159	0x3adc424b	0.0016804425
160	0x3b841363	0.0040306314
161	0x3aace227	0.0013189957
162	0xb9efec72	-0.00045761798
163	0xba69a863	-0.0008913336
164	0x39f31303	0.00046362737
165	0x3ccd36aa	0.02505048
166	0xbb82e83f	-0.003994971
167	0xb9eafa26	-0.00044818333
168	0xbdc54230	-0.09631765
169	0x3a0a48aa	0.000527511
170	0x3d6497ba	0.05580876
171	0xba8781fc	-0.0010338421
172	0xbb00d696	-0.0019659153
173	0xba5c06ec	-0.00083933654
174	0x3bceba98	0.006308865
175	0x3c9aa1b9	0.018875943
176	0xbae61e6f	-0.0017556677
177	0xbb86e768	-0.0041169412
178	0xbd7c6465	-0.06161918
179	0x3bb00b79	0.0053724614
180	0x3c71bf74	0.014755119
181	0x3a6c88c0	0.0009023063
182	0x3caf6247	0.021409167
183	0x393c9f12	0.00017988335
184	0xbac2454d	-0.0014821679
185	0x3b81c97d	0.003960787
186	0x3c63f5b8	0.013913564
187	0x381c4a45	3.7262467e-05
188	0xb9675010	-0.00022059702
189	0x3a074227	0.0005159699
190	0xbbd7061e	-0.0065620085
191	0x39356572	0.00017299296
192	0xbb739a6a	-0.0037170895
193	0x3b7366cf	0.0037140136
194	0xbd916417	-0.07099169
195	0xbda1f46c	-0.07907948
196	0xbd8c2ade	-0.06844114
197	0x3aed6cd1	0.0018114095
198	0xba0eeb47	-0.0005451929
199	0xba5f3fa6	-0.0008516259
200	0xbb37a761	-0.002802335
201	0xbc9eb2ea	-0.019372422
202	0xbe184c14	-0.14872772
203	0xbe0def88	-0.13860905
204	0xbaee9886	-0.0018203415
205	0x3bb92ec8	0.0056513287
206	0x3ba2715c	0.004957361
207	0xbad45be8	-0.0016201707
208	0xbaedc0f6	-0.0018139172
209	0x3bb9b152	0.00566689
210	0x3cc79071	0.024360867
211	0x3b4ee22d	0.0031567917
212	0xbc9202af	-0.017823545
213	0xbbac9e5a	-0.0052679004
214	0xbb436380	-0.0029813945
215	0xbb56a9b2	-0.0032754955
216	0xbbc52567	-0.0060164216
217	0xbaada616	-0.001324835
218	0x3b254ca6	0.0025222688
219	0x3aa14cb0	0.001230618
220	0xbb37ace1	-0.0028026628
221	0xbb48bedc	-0.003063134
222	0xbb24ff9b	-0.0025176767
223	0xbbc156b8	-0.0059002303
224	0x3bfbc48a	0.0076833414
225	0xbbefc80a	-0.0073175477
226	0xb970e13f	-0.00022972094
227	0xba10e0cb	-0.0005526661
228	0xbb35ee89	-0.0027760586
229	0x3cf37eaf	0.029723493
230	0xbad561bb	-0.0016279736
231	0x3a2d8caa	0.0006620387
232	0x3cc64f4a	0.02420773
233	0xbb490a86	-0.0030676438
234	0x3b1f27a5	0.0024285105
235	0xbba0aad1	-0.0049031754
236	0x38f4c66b	0.00011671785
237	0x3bc355cc	0.0059611555
238	0xbad01037	-0.0015873973
239	0xbdc4c865	-0.09608535
240	0x3a7dd358	0.0009682677
241	0x3a3db246	0.00072363426
242	0x3dc6f4f9	0.097146936
243	0xbb3276ef	-0.0027231534
244	0x3c95db5a	0.018293072
245	0xbafb8c65	-0.0019191621
246	0xbc57de3d	-0.013175544
247	0xbbc020de	-0.005863293
248	0xbb6b55ad	-0.003590922
249	0xba44a16d	-0.0007500861
250	0xbd1eadd6	-0.03874
251	0x3b174a57	0.0023085081
252	0x3b4920a4	0.0030689621
253	0xbb0081d1	-0.0019608627
254	0xbbb397a6	-0.0054807244
255	0x3a36e50b	0.0006976879

bias f4 [6]
0	0x3dcb1f4e	0.0991808
1	0x3bebab4a	0.00719205
2	0xbd1e287a	-0.03861282
3	0x3da87597	0.082255535
4	0x3cba4256	0.02273671
5	0xbd8845b6	-0.06653921
