sample/ur_reach/model.pt (torch, 165941 bytes, 36 tensors)

std f4 [6]
0	0x3ba1d8a9	0.004939158
1	0x3c5bd4b1	0.013417409
2	0x3ca51528	0.02015169
3	0x3cdb7613	0.0267897
4	0x3c1b4592	0.009477036
5	0x3d2732da	0.04081998

actor.0.weight f4 [64, 28]
0	0x3eaccadb	0.33748516
1	0x3f83f0a3	1.0307811
2	0xbdad4f06	-0.08462338
3	0x3f17d4ab	0.5930888
4	0xbd940ff2	-0.07229604
5	0x3e846569	0.2585862
6	0xbdbcb2b8	-0.092137754
7	0x3eb2d77f	0.34930035
8	0x3e3852dc	0.18000358
9	0x3cfcbe12	0.030852351
10	0x3d82545c	0.063637465
11	0x3d2748ce	0.040840916
12	0x3e1bc875	0.15213187
13	0x3d1c19ba	0.038110472
14	0x3dd4462a	0.10364945
15	0xbc684560	-0.014176697
16	0x3e152e1d	0.14568372
17	0x3ce4d44a	0.027933259
18	0xbd9b121a	-0.07571812
19	0x3e2b7f3a	0.16747752
20	0xbe0a83f4	-0.13526899
21	0xbd25de13	-0.04049499
22	0xbd5dc2e0	-0.054140925
23	0x3e000520	0.12501955
24	0xbe4a8434	-0.19776994
25	0xbdd9a2c0	-0.10626745
26	0xbe38799e	-0.18015143
27	0xbd778799	-0.06043205
28	0xbf7f0d5e	-0.9962977
29	0xbf9bb1bb	-1.2163614
30	0x3e9b83f8	0.30374122
31	0xbeb3deeb	-0.3513101
32	0xbf28e3c3	-0.65972537
33	0x3f2191e6	0.6311325
34	0x3bb1230d	0.0054057897
35	0x3db8ac2e	0.09017216
36	0x3d505546	0.050862573
37	0xbbe2697f	-0.006909549
38	0x3c59025b	0.0132451905
39	0xbd38476f	-0.04499
40	0xbdd3476d	-0.10316358
41	0xbe521ae7	-0.20518075
42	0xbd98575a	-0.07438536
43	0x3c72202f	0.014778181
44	0x3ddfbac9	0.10924298
45	0xbda9338b	-0.08261784
46	0xbd37bb21	-0.044856194
47	0xbda1e579	-0.079050966
48	0xbdcee34e	-0.10101949
49	0xbce12b27	-0.027486397
50	0xbe2ae1c4	-0.16687685
51	0xbde12bc3	-0.10994675
52	0xbdf1d855	-0.1180884
53	0x3d4c3891	0.049858633
54	0xbdd7e01b	-0.105407916
55	0x3e9497d2	0.2902208
56	0xbebe1d95	-0.37131944
57	0x3e37f247	0.17963515
58	0x3f8ef31a	1.1167939
59	0xbe6e7bf7	-0.23289476
60	0xbebb87d5	-0.3662707
61	0xbed58f28	-0.41710782
62	0xbdda183d	-0.10649154
63	0xbe41fef4	-0.18944913
64	0xbd3b8bd6	-0.045787655
65	0x3cd7664e	0.0262939
66	0xbc93f529	-0.018061237
67	0x3caae884	0.020862825
68	0xbd8cb672	-0.06870736
69	0xbd8cbb50	-0.068716645
70	0x3e5b1bd6	0.21397337
71	0x3ddb19ed	0.10698304
72	0x3e3a3670	0.18184829
73	0xbe1fb4a6	-0.15596256
74	0xbe12e266	-0.14344177
75	0xbd641bb0	-0.055690467
76	0xbbd998af	-0.0066405158
77	0x3e0c4524	0.1369825
78	0x3dd4e6d7	0.10395592
79	0x3e0c71ce	0.13715288
80	0xbd28758e	-0.041127734
81	0xbe24c7ee	-0.16091892
82	0xbe039fc6	-0.12853917
83	0xbdf22496	-0.118233845
84	0x3dab1e23	0.083553575
85	0x3e1f1f31	0.15539242
86	0x3dbbeca0	0.09175992
87	0xbf8c84f2	-1.0978072
88	0xbe3d8a16	-0.18509707
89	0x3f052661	0.52011687
90	0x3d87e7d0	0.066360116
91	0xbda5505a	-0.080719665
92	0x3dda2606	0.10651784
93	0x3d966291	0.07343019
94	0xbceb71ef	-0.028740851
95	0xbda2e158	-0.07953137
96	0x3e313e1b	0.17308848
97	0xbd828053	-0.06372132
98	0xbd891bf5	-0.066947855
99	0xbe3b340b	-0.18281572
100	0xbddda4ce	-0.108224496
101	0x3d415da7	0.047208454
102	0xbccbfccc	-0.024900816
103	0xbe789097	-0.24273907
104	0xbc7695c5	-0.015050356
105	0xbdc94028	-0.0982669
106	0xbe13f947	-0.1445056
107	0x39d932ae	0.00041427225
108	0xbe602da0	-0.21892405
109	0xbe81159e	-0.25211805
110	0x3e4e60a6	0.20154056
111	0x3e81271b	0.25225148
112	0x3fcca7fc	1.5988765
113	0x3e29ec20	0.16593981
114	0xbf40d5af	-0.75326055
115	0xbf3c7f1d	-0.7363146
116	0x3eba0da3	0.3633853
117	0x3f03eb4a	0.515309
118	0xbe3a2895	-0.18179543
119	0xbdfbe98c	-0.12300405
120	0xbd1dde7e	-0.038542263
121	0x3d7ca307	0.061678912
122	0xbc8e5887	-0.017376198
123	0xbd3243fb	-0.043521862
124	0xbd5f64ce	-0.054539494
125	0xbd0fb289	-0.035082374
126	0x3c2b8c7f	0.010470509
127	0xbd977fd5	-0.07397429
128	0x3e224244	0.15845591
129	0xbd19a014	-0.037506178
130	0x3e737dba	0.2377843
131	0x3d78b8c2	0.060723074
132	0x3cd1ef93	0.025626933
133	0x3e4d436b	0.20045249
134	0x3d1c1aaf	0.038111385
135	0x3d25a8f9	0.040444348
136	0xbe1fb715	-0.15597184
137	0xbd9abfcc	-0.075561136
138	0x3e5efbf6	0.21775803
139	0x3e1e2046	0.15441999
140	0xbe51237b	-0.20423691
141	0xbf5c6d5c	-0.8610437
142	0x3e465729	0.19369186
143	0x3e63e1a5	0.22254045
144	0xbf64643b	-0.8921544
145	0x3fbd8817	1.4807156
146	0x3d2b44f9	0.041813824
147	0x3e2dfe72	0.16991594
148	0xbc9fb55c	-0.019495659
149	0x3d0af742	0.03392721
150	0x3ca95a2c	0.02067288
151	0xbddcd041	-0.10781909
152	0x3d82fd82	0.06396009
153	0xbd689375	-0.05678125
154	0x3e837c3b	0.25680718
155	0xbd5d526f	-0.054033693
156	0x3dceda07	0.10100179
157	0x3d880507	0.06641584
158	0x3e15965e	0.14608142
159	0x3da7e86d	0.081986286
160	0xbd9d014d	-0.07666264
161	0xbda177dd	-0.0788419
162	0xbe2a4c30	-0.16630626
163	0xbe5ed79d	-0.21761937
164	0xbda44fe5	-0.08023051
165	0x3e04e160	0.12976599
166	0xbeb1c7ff	-0.34722897
167	0x3ea413cf	0.32046363
168	0xbf7bab1f	-0.98307985
169	0xbfb32b3b	-1.3997568
170	0xbd65b38b	-0.05607943
171	0x3f2b4ae4	0.6691115
172	0xbe02a169	-0.12756886
173	0x3e79df97	0.24401699
174	0xbd1e8fbe	-0.038711302
175	0xbdc42f8c	-0.09579381
176	0xbe1803ec	-0.14845246
177	0xbb571df9	-0.0032824262
178	0x3dc73746	0.097273394
179	0xbdb14dbf	-0.08657407
180	0xbcefe4dc	-0.029283933
181	0x3cc8547e	0.024454352
182	0xbd1f5404	-0.038898483
183	0xbe0fd9d5	-0.1404794
184	0x3dca029c	0.09863779
185	0x3dcb646f	0.099312656
186	0xbb24b575	-0.002513257
187	0xbd83cfd9	-0.06436128
188	0xbe062c81	-0.13102914
189	0x3d7234a0	0.05913222
190	0xbdc60a91	-0.09669984
191	0xbe7c83f9	-0.24659719
192	0x3e856206	0.26051348
193	0x3e7009d1	0.23441245
194	0xbe160f97	-0.14654385
195	0xbc76a71a	-0.015054489
196	0xbe3787d5	-0.1792291
197	0x3ecb9f80	0.39770126
198	0x3e1839b5	0.14865763
199	0x3ec89bae	0.39181274
200	0xbf195e49	-0.5990949
201	0x3e8a0452	0.2695642
202	0x3e32d977	0.17465769
203	0x3e674426	0.2258459
204	0x3d5cea43	0.053934347
205	0x3d83adce	0.06429635
206	0x3ccd7e8c	0.025084756
207	0xbe309ebf	-0.17248057
208	0xbddc74cd	-0.107644655
209	0x3c9197f4	0.017772652
210	0x3d9876e8	0.074445546
211	0x3d28cfe0	0.04121387
212	0xbe2b0f15	-0.16704972
213	0xbde8bfaa	-0.11364682
214	0xbd9b5e77	-0.07586377
215	0x3ee27de2	0.44236666
216	0xbd9fcf4c	-0.078032106
217	0x3cf4e524	0.029894419
218	0xbe1396d8	-0.14413011
219	0xbdffa132	-0.124819174
220	0xbe5ac162	-0.21362832
221	0x3e05f0e5	0.13080175
222	0xbd850600	-0.06495285
223	0x3d84c449	0.06482751
224	0xbf4c5331	-0.7981444
225	0x3f22743d	0.63458616
226	0x3f07e00d	0.5307625
227	0x3f071fb7	0.5278277
228	0x3e8dd022	0.27697855
229	0xbdab2775	-0.08357135
230	0x3d88c722	0.066786066
231	0x3ecdfaff	0.40230557
232	0x3c1b0dc2	0.009463729
233	0x3e2f45a0	0.17116404
234	0xbbae1cf1	-0.0053135087
235	0xbde8ae9b	-0.11361428
236	0x3d87b157	0.06625622
237	0xbd9adcbd	-0.07561634
238	0xbdc01fa0	-0.09381032
239	0xbdde86d4	-0.1086556
240	0x3d9e700a	0.077362135
241	0xbdbe05a8	-0.092784226
242	0x3cf66008	0.030075088
243	0x3cb8073a	0.022464383
244	0x3e53f04b	0.20697133
245	0x3cbc376a	0.022975642
246	0xbd77f41e	-0.060535543
247	0xbe3f4f4b	-0.18682592
248	0xbdaebbda	-0.085319236
249	0xbb8b975e	-0.0042599877
250	0xbe16691b	-0.14688532
251	0xbe35ffe0	-0.1777339
252	0x3ee18389	0.44045666
253	0xbef8f8e9	-0.48627403
254	0xbe9ce54a	-0.30643684
255	0x3ea37d76	0.31931657

actor.0.bias f4 [64]
0	0xbe230189	-0.15918554
1	0x3c53938e	0.012913598
2	0x3cf2a7f8	0.02962111
3	0xbdbf4608	-0.09339529
4	0x3c2948f4	0.010332335
5	0xbd80ca5b	-0.06288596
6	0x3d982c9a	0.07430382
7	0xbdb234f4	-0.08701506
8	0xbd1c0adb	-0.03809629
9	0xbdd476fa	-0.103742555
10	0x3e03a111	0.1285441
11	0xbcbd0b96	-0.023076814
12	0xbc6a8865	-0.014314746
13	0xbde9848d	-0.11402235
14	0xbca74819	-0.020420121
15	0x3d3df720	0.046378255
16	0x3e0aea74	0.13566
17	0xbe1b446b	-0.15162818
18	0xbd12fcb5	-0.03588553
19	0xbe58474c	-0.21120948
20	0xbe0ec5cd	-0.13942643
21	0x3e47e7f7	0.19522081
22	0x3d8162c4	0.06317666
23	0x3e2223af	0.15833925
24	0xbc2aa5ed	-0.010415536
25	0xbe05a2ff	-0.1305046
26	0xbe215130	-0.15753627
27	0x3dcff746	0.101545855
28	0xbdee7c3e	-0.11644791
29	0x3d17e2f0	0.03708166
30	0xbcd4e7e7	-0.025989486
31	0xbca80766	-0.02051134
32	0x3d883ee2	0.06652619
33	0xbc4177a5	-0.011808311
34	0x3cea9c30	0.02863893
35	0xbd726db1	-0.05918664
36	0x3d189297	0.037249174
37	0x3d765dc8	0.06014803
38	0x3e150e7a	0.14556304
39	0xbd4a921b	-0.049455743
40	0xb84beaa4	-4.8617498e-05
41	0xbe07edc3	-0.13274293
42	0x3d7d0b49	0.06177834
43	0xbdc0e64e	-0.09418927
44	0xbccc4c2c	-0.024938665
45	0x3cc9af5e	0.024619754
46	0x3d5484fe	0.051884644
47	0xbd91b21a	-0.07114048
48	0xbce689f5	-0.028141955
49	0x3dbbcbe4	0.091697484
50	0x3d563432	0.05229587
51	0xbd963c7a	-0.07335754
52	0xbe176dd5	-0.14787991
53	0xbd07c205	-0.033144016
54	0x3d3ae2fb	0.04562662
55	0x3d4f5c74	0.05062528
56	0x3e0f2b98	0.13981473
57	0xbe4cb524	-0.19990975
58	0x3d9470cc	0.07248077
59	0xbd858e06	-0.065212294
60	0x3dbbfc1b	0.09178945
61	0x3d9b7cfa	0.07592197
62	0xbc6d12d6	-0.014469823
63	0x3e2ef0ee	0.17084095

actor.2.weight f4 [64, 64]
0	0xbd75a5dc	-0.05997263
1	0xbd888edf	-0.066678755
2	0xbd897eb9	-0.067136236
3	0x3dbb4b5b	0.09145232
4	0x3d612750	0.054969132
5	0xbdbf73c3	-0.09348252
6	0x3d07989d	0.033104528
7	0x3d34cd99	0.044141386
8	0xbdad3952	-0.084581986
9	0x3d63b4a1	0.055592183
10	0x3d20fec6	0.03930547
11	0x3cd8b677	0.026454194
12	0x3d9bd049	0.076080866
13	0x3ddeaf75	0.108733095
14	0x3daa22c5	0.08307413
15	0xbca9af84	-0.020713575
16	0x3ce94f33	0.028480148
17	0xbd0d74a5	-0.03453507
18	0xbdf64791	-0.12025369
19	0xbd3f0eb1	-0.04664487
20	0xbdfbd731	-0.12296904
21	0x3d13c999	0.03608093
22	0x3d91462b	0.070934616
23	0xbd8ccb4b	-0.068747126
24	0xbdddb387	-0.10825258
25	0x3c34861b	0.011018301
26	0x3d77d3f0	0.060504854
27	0x3d2d5f1b	0.042327028
28	0x3d538a2b	0.05164544
29	0x3c3dc6f9	0.011583083
30	0x3d0cfd35	0.034421165
31	0x3d1e47b0	0.038642585
32	0x3d169ff8	0.03677365
33	0xbd92354b	-0.07139071
34	0x3d687919	0.056756113
35	0x3dca504e	0.09878598
36	0xbc2705b4	-0.010194231
37	0x3bb09e7b	0.005389986
38	0xbd3062d4	-0.043063
39	0xbd37917d	-0.044816483
40	0x3da0b722	0.0784743
41	0xbc3b208b	-0.011421333
42	0x3dec4b04	0.115377456
43	0xbd538306	-0.051638626
44	0x3d880dc4	0.066432506
45	0xbd6ba137	-0.057526793
46	0xbd8f45e2	-0.06995751
47	0xbccd3a0f	-0.025052099
48	0x3dc62272	0.09674539
49	0x3da7e49a	0.08197899
50	0xbd9cca6f	-0.07655799
51	0xbd698f94	-0.057021692
52	0xbdbd80c1	-0.092530735
53	0xbc99bee4	-0.018767782
54	0xbdfe4f4f	-0.12417471
55	0xbd24b35c	-0.040210113
56	0x3d68aea9	0.056807194
57	0xbcb93879	-0.022609936
58	0xbdfe7536	-0.124247
59	0x3d40bd8b	0.047055762
60	0x3d28a489	0.041172538
61	0x3c9fa931	0.019489856
62	0x3e0062e4	0.12537724
63	0xbdd12e29	-0.102138825
64	0xbd8e43ad	-0.06946502
65	0xbcb3247c	-0.021867983
66	0xbc3ea8f9	-0.011636966
67	0x3c87c4f8	0.016573414
68	0x3dfe118b	0.1240569
69	0x3e00bf1b	0.12572901
70	0x3df974b9	0.12180466
71	0x3d484427	0.04889312
72	0x3d99c84d	0.075089075
73	0x3dce0393	0.100592755
74	0xbd27b2c3	-0.040941965
75	0x3d126e87	0.03574994
76	0x3e5008f1	0.20315911
77	0x3dd920a8	0.10601932
78	0xbd739d54	-0.05947621
79	0x3ca6fec0	0.020385146
80	0x3e01e025	0.1268316
81	0xbc43892d	-0.011934561
82	0x3e1344ee	0.14381763
83	0xbc558905	-0.013033156
84	0x3d927b83	0.07152464
85	0xbd820f29	-0.06350548
86	0x3d101c6d	0.03518336
87	0x3d4dda1b	0.05025683
88	0x3c4eefe1	0.012630434
89	0x3d84fa40	0.06493044
90	0xbde1ef55	-0.11031977
91	0x3e044b89	0.1291944
92	0x3d594fc6	0.053054594
93	0xbd9ef4b3	-0.077615164
94	0x3d3d36e1	0.046194915
95	0x3c41735a	0.011807287
96	0x3e0651da	0.13117161
97	0x3e06e8ce	0.13174745
98	0xbc87be18	-0.016570136
99	0xbda8ca93	-0.08241763
100	0xbcc85faf	-0.024459688
101	0x3c6e514a	0.014545748
102	0x3e0bb971	0.13644959
103	0x3d8fd6f8	0.07023424
104	0xbcdb2a64	-0.026753612
105	0x3d3e4fbe	0.046462767
106	0xbcfca0c3	-0.030838376
107	0xbd562091	-0.05227715
108	0x3c200518	0.009766839
109	0xbd61798e	-0.055047564
110	0xbe26cf04	-0.16289908
111	0x3e0a95f2	0.13533762
112	0x3df182be	0.11792515
113	0x3d3cb1d5	0.04606803
114	0xbb0124f3	-0.0019705861
115	0x3c85c89f	0.016331015
116	0xbd2ad4b8	-0.04170677
117	0xbcdc2f4e	-0.026878025
118	0xbbaf6c6e	-0.005353502
119	0x3dd3a567	0.10334282
120	0xbdb67c02	-0.08910371
121	0x3d8a0cd9	0.06740732
122	0x3d976091	0.073914655
123	0xbc426d5e	-0.0118668955
124	0x3d2855cb	0.041097444
125	0x3d9d0a5e	0.07667993
126	0x3dae600e	0.08514415
127	0x3df00af6	0.11720841
128	0x3db23a62	0.08702542
129	0xbcedae1f	-0.029013691
130	0xbe461f4a	-0.19347873
131	0x3e1c9e12	0.15294674
132	0xbd164b67	-0.036693003
133	0x3cafe022	0.02146918
134	0x3d690b10	0.056895316
135	0x3e1e8457	0.15480171
136	0x3e83496c	0.25641954
137	0xbd940e9c	-0.07229349
138	0x3c10cbe8	0.008837678
139	0xbdcbaca3	-0.09945037
140	0xbe43cee9	-0.19121899
141	0x3cb47fd3	0.022033608
142	0x3c795fb6	0.015220573
143	0xbe669aa5	-0.2251993
144	0xbcbbf409	-0.022943513
145	0xbc8d026e	-0.017213073
146	0x3d9c320d	0.07626734
147	0xbb7b74aa	-0.0038369098
148	0xbd6e2e74	-0.05814977
149	0xbe01488e	-0.12625334
150	0xbdc2939e	-0.09500812
151	0x3d355a89	0.044275794
152	0x3d85f59c	0.06540987
153	0xbe227787	-0.15865909
154	0xbd839474	-0.064247996
155	0xbdbee6d1	-0.093213685
156	0x3c9157f0	0.017742127
157	0xbc809932	-0.01569805
158	0xbd054939	-0.032540534
159	0xbe0469ee	-0.12931034
160	0x3da6c7e7	0.08143597
161	0xbdb00495	-0.08594624
162	0xbcc6dab7	-0.024274213
163	0x3d15b1a4	0.036546364
164	0xbdc58cd3	-0.09646001
165	0xbd55013a	-0.052003123
166	0x3e40b5b1	0.1881931
167	0x3bb242ca	0.005440091
168	0x3e17e007	0.14831553
169	0x3e235f5c	0.15954345
170	0xbe02071d	-0.12698026
171	0x3d9b48e4	0.07582262
172	0xbce39178	-0.027779326
173	0x3cda7e0c	0.026671432
174	0x3d71b49e	0.05901014
175	0x3decd226	0.1156352
176	0xbd99eaeb	-0.0751551
177	0xbcfb55fb	-0.030680647
178	0xbdfe3836	-0.12413065
179	0x3da42009	0.08013923
180	0xbdf08f88	-0.117461264
181	0xbd97ec1a	-0.0741808
182	0x3e1d8787	0.15383731
183	0x3e3ee342	0.1864138
184	0xbdd3c2b3	-0.1033987
185	0xbdbd6111	-0.092470296
186	0xbdd8b31c	-0.105810374
187	0xbe049722	-0.12948278
188	0xbcecb3ad	-0.02889427
189	0x3bcf295e	0.00632207
190	0x3dff9988	0.12480456
191	0x3dd9e8df	0.1064012
192	0xbd7ec71a	-0.062201597
193	0x3a92ba4d	0.0011194438
194	0xbcad7eda	-0.021178652
195	0x3d7d81ed	0.061891485
196	0xbca30c5e	-0.019903358
197	0x3bcc86ea	0.006241669
198	0x3d071032	0.03297443
199	0xbd0717cf	-0.03298169
200	0xbd889a4d	-0.066700555
201	0xbd160503	-0.036625873
202	0xbe815524	-0.2526027
203	0xbe8df9c6	-0.27729625
204	0x3cb1b0d2	0.02169076
205	0x3dde2f34	0.10848847
206	0xbbe9b135	-0.0071317204
207	0xbdbcc3f7	-0.09217065
208	0x3e3091b8	0.17243087
209	0x3c51f534	0.012814809
210	0xbcd5d2f3	-0.026101565
211	0x3d96946a	0.073525265
212	0x3d945635	0.07243005
213	0x3c075cfa	0.008261913
214	0xbd7ca3f2	-0.061679788
215	0xbd69dd1f	-0.057095643
216	0xbe31500e	-0.17315695
217	0x3e559652	0.20858124
218	0x3dc793e1	0.097450025
219	0x3d266518	0.040623754
220	0xbcb0f122	-0.021599356
221	0x3d98b3c5	0.07456163
222	0xbe145cc5	-0.14488514
223	0xbc8ef68e	-0.01745155
224	0xbe0f2de1	-0.13982345
225	0x3e2d26c2	0.16909316
226	0x3d39275c	0.04520355
227	0xbe2f67f0	-0.17129493
228	0x3dedbb32	0.1160797
229	0x3d6434c7	0.055714395
230	0x3ccd0307	0.025025858
231	0xbe249ed3	-0.16076212
232	0x3e0535cc	0.13008803
233	0xbdd59239	-0.104282804
234	0xbc9026db	-0.017596653
235	0xbe3d75ae	-0.18501922
236	0x3dc2f764	0.09519842
237	0x3d2e1f05	0.04251005
238	0x3dc7a79a	0.09748764
239	0xbc04b504	-0.008099798
240	0x3d194bb7	0.037425723
241	0xbd86e5f7	-0.06586831
242	0xbbbb2cdd	-0.005712135
243	0xbd3e0962	-0.046395667
244	0x3e069d4c	0.13145941
245	0x3bece1f4	0.007229084
246	0xbd99e52e	-0.07514416
247	0x3cf24c62	0.029577438
248	0xbe06ef40	-0.13177204
249	0x3d9f1b25	0.07768849
250	0x3dbbc9bc	0.09169337
251	0x3da89f03	0.08233454
252	0x3cf2f82b	0.029659351
253	0x3bd703e3	0.0065617426
254	0xbda9fa55	-0.082997
255	0x3c642344	0.013924424

actor.2.bias f4 [64]
0	0x3c90f78d	0.017696166
1	0x3d87cef6	0.066312715
2	0xbdbbeb3b	-0.09175726
3	0xbe371fc6	-0.17883214
4	0xbd71edaf	-0.059064563
5	0xbbfd6163	-0.0077325567
6	0xbd9887a3	-0.07447746
7	0x3bf317b5	0.0074185976
8	0xbd84f0a2	-0.064912096
9	0xbd5343ad	-0.051578213
10	0xbd7f02e3	-0.062258612
11	0xbe84a193	-0.2590452
12	0xbce45bba	-0.02787577
13	0xbcd21807	-0.025646223
14	0xbe591d30	-0.2120254
15	0x3d36a3f2	0.044589944
16	0x3c66e84f	0.014093473
17	0xbc6342c6	-0.0138709005
18	0x3d39d217	0.045366373
19	0xbd24d562	-0.04024256
20	0xbdfc79d9	-0.12327928
21	0x3cda4621	0.026644768
22	0xbd33b6ab	-0.043875378
23	0xbd32dce8	-0.043667704
24	0xbcb7a108	-0.022415653
25	0xbd025b11	-0.03182513
26	0x3d2d0c87	0.042248275
27	0xbd3ced22	-0.046124585
28	0x3cda4139	0.026642429
29	0xbd1d9514	-0.03847225
30	0xbab27121	-0.0013614037
31	0x3d1282ad	0.035769153
32	0xbc9762bc	-0.018479697
33	0x3ce8bb5e	0.028409656
34	0xbbe7eeb5	-0.0070780166
35	0xbd220507	-0.039555576
36	0x3d0145c5	0.031560678
37	0xbde90231	-0.11377371
38	0xbc2cbfc8	-0.010543771
39	0xbd8aae69	-0.06771547
40	0xbdbef06d	-0.09323201
41	0xbd3d2525	-0.046178002
42	0xbd87e9b4	-0.06636372
43	0xbc8495c5	-0.016184697
44	0xbcc7b22f	-0.024376957
45	0xbd337aee	-0.043818407
46	0x3cd44677	0.025912507
47	0xbe4008a6	-0.18753299
48	0x3a54f919	0.00081242766
49	0x3cf857c2	0.030315284
50	0x3d61f11f	0.05516159
51	0x3c0ae1ed	0.0084767165
52	0xbd3dd95d	-0.046349872
53	0x3c392062	0.011299225
54	0x3cc14788	0.02359368
55	0xbd62a77d	-0.05533551
56	0xbd30e4bf	-0.0431869
57	0x3c978def	0.018500296
58	0xbd497823	-0.049186837
59	0xbc67c3f7	-0.014145843
60	0x3d3882e8	0.045046717
61	0xbc327b50	-0.010893658
62	0xbd5d7cc4	-0.054074064
63	0xbc9223d5	-0.017839352

actor.4.weight f4 [6, 64]
0	0x3795abe7	1.7842232e-05
1	0xb8c8e6b0	-9.579712e-05
2	0xbd942d0b	-0.07235154
3	0x3ccbb984	0.024868734
4	0xbde464a4	-0.11152008
5	0xb90934f2	-0.00013085062
6	0x3919fd98	0.00014685688
7	0x38581588	5.1518466e-05
8	0x388531aa	6.351185e-05
9	0xbcc69941	-0.024242999
10	0x3d18dc6c	0.037319586
11	0xbdb1f54f	-0.08689367
12	0x363265bc	2.6583284e-06
13	0x396ba1ba	0.00022471594
14	0xbd0eb460	-0.034839988
15	0x3912c6d0	0.00013997708
16	0x38210ae1	3.8395523e-05
17	0xb95202f6	-0.00020028264
18	0x38dddd1b	0.00010579285
19	0xb88da160	-6.7534624e-05
20	0xbcdc14ed	-0.026865447
21	0xb9815180	-0.0002466552
22	0x3807f2d5	3.2412663e-05
23	0xb8aec2e8	-8.333271e-05
24	0x394a0cc8	0.00019268983
25	0x37df883a	2.6647107e-05
26	0xb9d26bcf	-0.00040134645
27	0xb83b8f39	-4.471766e-05
28	0x39a58c53	0.00031575802
29	0xb7533ef2	-1.2591236e-05
30	0xb97b135f	-0.00023944442
31	0xb89e52f3	-7.5494776e-05
32	0x3897bf5d	7.235885e-05
33	0x3887ae91	6.469817e-05
34	0x38171bd4	3.6027122e-05
35	0x3921a2c6	0.00015414794
36	0x381c5ed0	3.72816e-05
37	0x3d27c910	0.040963233
38	0xb87b3c41	-5.989918e-05
39	0x39b5d73d	0.00034683375
40	0x3e0caecd	0.13738556
41	0x38b4478e	8.596397e-05
42	0xbbff9eba	-0.007800904
43	0x395c3f72	0.0002100447
44	0x37fd798a	3.0216546e-05
45	0x380c1752	3.340032e-05
46	0x396fc0c1	0.00022864623
47	0xbe7b91d2	-0.24567345
48	0xb7d5b66d	-2.5476527e-05
49	0xb9868168	-0.00025654887
50	0x3e591b60	0.21201849
51	0xb75d0d1b	-1.3175678e-05
52	0x392d4b26	0.0001652656
53	0xb89768ac	-7.219738e-05
54	0xbc6555b2	-0.013997482
55	0xb96c050c	-0.00022508594
56	0x37d82be6	2.5769648e-05
57	0x38addc40	8.2903076e-05
58	0x3aad0eac	0.0013203225
59	0x383f162b	4.5558594e-05
60	0xb775c9a3	-1.4650085e-05
61	0x38e59661	0.00010947581
62	0xb9a6d9e4	-0.00031824328
63	0x377a3d3e	1.491542e-05
64	0xbb8b7f0b	-0.004257088
65	0xba97b9a6	-0.0011575713
66	0xbdd33898	-0.10313529
67	0xbdc6eda0	-0.09713292
68	0x3a4f9c10	0.00079196785
69	0x3ae6c6e3	0.001760688
70	0x3b562a92	0.0032679182
71	0x3a5a0a9c	0.0008317621
72	0x387d2cf2	6.036176e-05
73	0xbc8b2714	-0.016986407
74	0x3e22ce53	0.15899019
75	0xbe27ebb9	-0.16398515
76	0x3aa1f045	0.0012354931
77	0x38fc9aa2	0.00012045099
78	0xbdedd3be	-0.11612652
79	0xb89c1f70	-7.444515e-05
80	0xbac37864	-0.0014913199
81	0x3a95aa62	0.0011418576
82	0x3b5240d6	0.0032082102
83	0xb935e5ef	-0.00017347162
84	0xbb992ee7	-0.0046747806
85	0xbb59f9b3	-0.0033260405
86	0xbad63689	-0.0016343157
87	0x3a99479a	0.0011694313
88	0xba79c5f2	-0.00095280923
89	0x3b22b6fe	0.002482831
90	0xbba589f8	-0.0050518475
91	0xbad9a1f3	-0.0016604051
92	0x3b424c63	0.002964758
93	0x39e54b99	0.00043734608
94	0x3af84869	0.0018942478
95	0xbbb08f67	-0.0053881886
96	0x3b0a8879	0.0021138473
97	0xba8aa6d3	-0.0010578282
98	0xb9ca8ee8	-0.00038634916
99	0xb97dd3cb	-0.00024206859
100	0x39922a82	0.0002787896
101	0x3d9fc51e	0.07801269
102	0x3ab3dfa5	0.0013723267
103	0x3b57b9cd	0.0032917142
104	0xbde0dcd1	-0.109796174
105	0x3986052a	0.0002556232
106	0x3d9ccefa	0.07656665
107	0x3b28596c	0.0025688065
108	0x3a80906a	0.0009808664
109	0x3b1d6fa9	0.0024022853
110	0x3a9216c2	0.0011145698
111	0x3c2bf5a8	0.010495581
112	0xba3817ef	-0.00070226094
113	0xb9d74e37	-0.0004106627
114	0xbbdeb0b7	-0.0067959684
115	0xba63f53d	-0.0008695906
116	0x3a397019	0.0007073894
117	0x3adaecb2	0.0016702621
118	0xbc2e7cd0	-0.010649875
119	0xbb5fe0ec	-0.0034161163
120	0x3b1c95a0	0.0023892894
121	0x3a52738a	0.0008028081
122	0x3baddf70	0.005306177
123	0xba0851f4	-0.00052002
124	0xbab97d6d	-0.001415176
125	0xb990e914	-0.00027639477
126	0x3b21b806	0.0024676337
127	0xb97e8f9e	-0.00024276829
128	0x3af7a7ee	0.0018894651
129	0x3af537c8	0.0018708641
130	0xbd00c331	-0.03143615
131	0x3e00f4ee	0.12593433
132	0xbd7339d0	-0.059381306
133	0xbb1f8d51	-0.0024345706
134	0xbb13cef3	-0.0022553771
135	0xba43ddf1	-0.00074717315
136	0x3abc9365	0.0014387189
137	0x3cabf66e	0.02099153
138	0xbd826961	-0.06367756
139	0x3d8317ed	0.06401048
140	0x3b1bb925	0.0023761478
141	0x3be29bb1	0.0069155325
142	0x3dfe3f93	0.124144696
143	0xbb93d00e	-0.004510886
144	0x3b172ec9	0.0023068658
145	0xba4790ee	-0.0007612844
146	0x3c3c7874	0.011503328
147	0xba96045e	-0.0011445393
148	0xbc32d0b2	-0.010914015
149	0xbb2d7324	-0.0026466334
150	0xb9e96686	-0.0004451761
151	0x3a41326c	0.0007369879
152	0x3aaeb227	0.001332824
153	0x3a0bc508	0.0005331789
154	0x3a863306	0.0010238595
155	0xbb0d3afa	-0.0021550045
156	0xbb8947a5	-0.004189449
157	0xba3e852a	-0.0007267768
158	0xbba0dd9b	-0.00490923
159	0x3adc424b	0.0016804425
160	0x3b841363	0.0040306314
161	0x3aace227	0.0013189957
162	0xb9efec72	-0.00045761798
163	0xba69a863	-0.0008913336
164	0x39f31303	0.00046362737
165	0x3ccd36aa	0.02505048
166	0xbb82e83f	-0.003994971
167	0xb9eafa26	-0.00044818333
168	0xbdc54230	-0.09631765
169	0x3a0a48aa	0.000527511
170	0x3d6497ba	0.05580876
171	0xba8781fc	-0.0010338421
172	0xbb00d696	-0.0019659153
173	0xba5c06ec	-0.00083933654
174	0x3bceba98	0.006308865
175	0x3c9aa1b9	0.018875943
176	0xbae61e6f	-0.0017556677
177	0xbb86e768	-0.0041169412
178	0xbd7c6465	-0.06161918
179	0x3bb00b79	0.0053724614
180	0x3c71bf74	0.014755119
181	0x3a6c88c0	0.0009023063
182	0x3caf6247	0.021409167
183	0x393c9f12	0.00017988335
184	0xbac2454d	-0.0014821679
185	0x3b81c97d	0.003960787
186	0x3c63f5b8	0.013913564
187	0x381c4a45	3.7262467e-05
188	0xb9675010	-0.00022059702
189	0x3a074227	0.0005159699
190	0xbbd7061e	-0.0065620085
191	0x39356572	0.00017299296
192	0xbb739a6a	-0.0037170895
193	0x3b7366cf	0.0037140136
194	0xbd916417	-0.07099169
195	0xbda1f46c	-0.07907948
196	0xbd8c2ade	-0.06844114
197	0x3aed6cd1	0.0018114095
198	0xba0eeb47	-0.0005451929
199	0xba5f3fa6	-0.0008516259
200	0xbb37a761	-0.002802335
201	0xbc9eb2ea	-0.019372422
202	0xbe184c14	-0.14872772
203	0xbe0def88	-0.13860905
204	0xbaee9886	-0.0018203415
205	0x3bb92ec8	0.0056513287
206	0x3ba2715c	0.004957361
207	0xbad45be8	-0.0016201707
208	0xbaedc0f6	-0.0018139172
209	0x3bb9b152	0.00566689
210	0x3cc79071	0.024360867
211	0x3b4ee22d	0.0031567917
212	0xbc9202af	-0.017823545
213	0xbbac9e5a	-0.0052679004
214	0xbb436380	-0.0029813945
215	0xbb56a9b2	-0.0032754955
216	0xbbc52567	-0.0060164216
217	0xbaada616	-0.001324835
218	0x3b254ca6	0.0025222688
219	0x3aa14cb0	0.001230618
220	0xbb37ace1	-0.0028026628
221	0xbb48bedc	-0.003063134
222	0xbb24ff9b	-0.0025176767
223	0xbbc156b8	-0.0059002303
224	0x3bfbc48a	0.0076833414
225	0xbbefc80a	-0.0073175477
226	0xb970e13f	-0.00022972094
227	0xba10e0cb	-0.0005526661
228	0xbb35ee89	-0.0027760586
229	0x3cf37eaf	0.029723493
230	0xbad561bb	-0.0016279736
231	0x3a2d8caa	0.0006620387
232	0x3cc64f4a	0.02420773
233	0xbb490a86	-0.0030676438
234	0x3b1f27a5	0.0024285105
235	0xbba0aad1	-0.0049031754
236	0x38f4c66b	0.00011671785
237	0x3bc355cc	0.0059611555
238	0xbad01037	-0.0015873973
239	0xbdc4c865	-0.09608535
240	0x3a7dd358	0.0009682677
241	0x3a3db246	0.00072363426
242	0x3dc6f4f9	0.097146936
243	0xbb3276ef	-0.0027231534
244	0x3c95db5a	0.018293072
245	0xbafb8c65	-0.0019191621
246	0xbc57de3d	-0.013175544
247	0xbbc020de	-0.005863293
248	0xbb6b55ad	-0.003590922
249	0xba44a16d	-0.0007500861
250	0xbd1eadd6	-0.03874
251	0x3b174a57	0.0023085081
252	0x3b4920a4	0.0030689621
253	0xbb0081d1	-0.0019608627
254	0xbbb397a6	-0.0054807244
255	0x3a36e50b	0.0006976879

actor.4.bias f4 [6]
0	0x3dcb1f4e	0.0991808
1	0x3bebab4a	0.00719205
2	0xbd1e287a	-0.03861282
3	0x3da87597	0.082255535
4	0x3cba4256	0.02273671
5	0xbd8845b6	-0.06653921

critic.0.weight f4 [64, 28]
0	0x3eb8bf1c	0.36083305
1	0xbeb410f8	-0.35169196
2	0xbd9044ef	-0.07044398
3	0xbe132954	-0.14371234
4	0x3d088263	0.03332747
5	0xbd99b951	-0.075060494
6	0x3e6f92e7	0.23395883
7	0xbe09e462	-0.13466027
8	0xbdaa6679	-0.08320326
9	0x3d9db12a	0.07699807
10	0xbe5806d5	-0.21096356
11	0xbe14e188	-0.14539158
12	0xbe548dc7	-0.20757209
13	0xbd07e0fc	-0.033173546
14	0xbe99f6d6	-0.30071133
15	0xbde5ac2a	-0.11214478
16	0xbc90d31a	-0.017678786
17	0xbdc94926	-0.09828405
18	0x3c75ba93	0.014998096
19	0xbe309578	-0.17244518
20	0x3d5d159f	0.053975698
21	0xbfe0211d	-1.7510105
22	0xbcedfb6b	-0.02905055
23	0x3cc9d96e	0.024639811
24	0xbe20181f	-0.15634201
25	0x3e876447	0.26443693
26	0xbd997770	-0.07493484
27	0x3da262c9	0.07928998
28	0xbf08d0a7	-0.5344338
29	0x3ecec200	0.40382385
30	0x3f0bab7b	0.54558533
31	0xbe93193f	-0.287302
32	0x3ed3c8d8	0.4136417
33	0xbdfc089f	-0.12306332
34	0x3eb74f11	0.3580251
35	0x3e98412c	0.29737222
36	0xbe55021e	-0.20801589
37	0x3c616f5a	0.013759458
38	0xbd3bf27d	-0.04588555
39	0xbd2001f4	-0.039064363
40	0x3e90b421	0.28262427
41	0xbd303e05	-0.043027896
42	0x3dda7b56	0.10668056
43	0x3e06f2cb	0.13178556
44	0xbe2aad35	-0.16667636
45	0x3d9f2561	0.07770801
46	0x3e8465bf	0.25858876
47	0xbf4ec6ac	-0.807719
48	0x3e4e0f9f	0.20123146
49	0xbee0ffeb	-0.4394525
50	0x3e516c99	0.20451583
51	0xbe7e693c	-0.24844831
52	0x3e94dcff	0.29074857
53	0xbe4716fd	-0.19442363
54	0x3eaddefd	0.3395919
55	0xbdaddcf8	-0.08489412
56	0xbf73e945	-0.95277816
57	0x3d46ec24	0.048565045
58	0x3e713834	0.23556596
59	0xbdef9366	-0.11698036
60	0x3e7e5ef6	0.24840912
61	0x3ef299aa	0.4738286
62	0xbf308242	-0.6894876
63	0x3ed37671	0.413013
64	0x3f5e76d7	0.86900085
65	0x3e004e1c	0.12529796
66	0x3caa1b22	0.020764891
67	0x3f331ccd	0.6996582
68	0x3e0a1c55	0.1348737
69	0x3c806f2f	0.015678016
70	0x3e1cb3b7	0.15302931
71	0x3d2c0249	0.041994367
72	0x3cbc8250	0.023011357
73	0xbdfd9b9e	-0.12383197
74	0x3cd9ee29	0.026602821
75	0x3ef4d41f	0.47818086
76	0xbea5ba65	-0.3236877
77	0xbeadb31f	-0.3392572
78	0xbefa533c	-0.48891628
79	0xbe0b474c	-0.13601416
80	0x3eb008b5	0.34381643
81	0x3c0ba785	0.0085238265
82	0xbe4c4d43	-0.19951348
83	0x3ef0815b	0.4697369
84	0xbe4ffc16	-0.20311007
85	0x3cec126b	0.028817376
86	0xbed670e6	-0.4188301
87	0x3efeb8a7	0.49750254
88	0xbf01c3d3	-0.5068943
89	0x3e90ae0e	0.28257793
90	0x3ec0b8a9	0.37640885
91	0xbe8f1935	-0.2794892
92	0xbc09ecc9	-0.00841827
93	0x3ecebb03	0.40377054
94	0xbeb31b08	-0.3498156
95	0x3ef3d44a	0.476229
96	0x3dc11fc7	0.09429889
97	0x3c8b7202	0.017022137
98	0xbdc029dc	-0.09382984
99	0x3e6b8e70	0.23003554
100	0xbe3fe46d	-0.18739481
101	0x3e134b9a	0.14384308
102	0x3c4e795e	0.012602178
103	0x3f0881e4	0.533232
104	0xbd8f2414	-0.06989303
105	0x4018ed1e	2.3894725
106	0x3e868a1b	0.2627724
107	0xbed6a241	-0.41920665
108	0xbd122e82	-0.035688885
109	0x3e93d7c8	0.28875566
110	0xbed186ba	-0.409231
111	0x3e9896ed	0.29802647
112	0xbf0e57de	-0.55602825
113	0x3f29671f	0.66172975
114	0xbde1d9da	-0.1102788
115	0x3eb0b892	0.34515816
116	0x3ee5d719	0.4489067
117	0x3d838ef3	0.0642375
118	0x3e315ddd	0.17320962
119	0xbd1effa6	-0.038818024
120	0x3b34f289	0.0027610383
121	0x3de7ba05	0.11314777
122	0xbe852e05	-0.26011673
123	0x3d832431	0.06403387
124	0x3e285f40	0.16442585
125	0x3d2adc22	0.04171384
126	0x3d827a8f	0.063710324
127	0x3db809e7	0.08986264
128	0x3c50559f	0.012715726
129	0x3da9422d	0.08264575
130	0x3e765484	0.24055678
131	0x3e8bd075	0.27307478
132	0xbe9fb1a6	-0.31190223
133	0xbfeb027c	-1.8360133
134	0x3e3a9c1a	0.1822361
135	0x3ddd2600	0.107982635
136	0x3be37b6b	0.006942203
137	0x3d14e2e9	0.03634921
138	0xbe273dae	-0.16332123
139	0x3c125dd6	0.008933505
140	0x3e6d7c38	0.23191917
141	0x3defaba8	0.11702663
142	0xbee332f9	-0.44374827
143	0x3e03e05c	0.12878555
144	0xbe95e12b	-0.29273352
145	0xbe9b1bef	-0.3029475
146	0xbb529d65	-0.0032137271
147	0xbd31d0bc	-0.043411955
148	0xbdf22091	-0.11822618
149	0xbd87c0f7	-0.06628602
150	0x3e4b92f4	0.19880277
151	0xbda1acf4	-0.07894316
152	0x3e3b1763	0.1827064
153	0xbcddfe51	-0.027098807
154	0x3e11710f	0.14203285
155	0x3e5437aa	0.20724359
156	0x3e328063	0.17431788
157	0xbe2527c1	-0.16128446
158	0x3e8aea42	0.2713185
159	0x3d912d6f	0.07088744
160	0x3f9aba86	1.2088172
161	0x40348b3d	2.8209984
162	0xbd8254bf	-0.0636382
163	0x3dbf9bd5	0.093558945
164	0xbe3e138e	-0.18562147
165	0x3e9ccd6d	0.30625477
166	0xbc6a91c4	-0.01431698
167	0xbc58e18b	-0.013237367
168	0x3c5b2aef	0.013376935
169	0x3f3da505	0.74079925
170	0x3e0e2496	0.13881144
171	0x3e9a9bcf	0.30196998
172	0xbe9a95a8	-0.30192304
173	0xbe9b5fdd	-0.30346575
174	0x3e041d94	0.12901908
175	0x3e897f63	0.26855
176	0xbe65ea8a	-0.22452751
177	0xbbf2689c	-0.0073977243
178	0xbdf35249	-0.11880929
179	0xbd9b0d30	-0.07570875
180	0x3e42530c	0.18976992
181	0x3c78a6b8	0.015176468
182	0x3e763425	0.24043329
183	0xbd388221	-0.045045976
184	0xbe31d0bf	-0.17364787
185	0x3d837144	0.06418088
186	0x3e9713fa	0.29507428
187	0x3f350799	0.7071472
188	0x3ebfef17	0.374871
189	0x3ff55f9c	1.9169803
190	0x3d573a56	0.052545868
191	0xbe548c2d	-0.20756598
192	0x3c7fd4cd	0.0156147005
193	0x3cc67e76	0.024230223
194	0x3d18b828	0.037285
195	0xbe8eb3b5	-0.2787148
196	0xbf028483	-0.50983447
197	0x3e6c91c8	0.23102486
198	0xbe7f0439	-0.24903955
199	0x3e7f5925	0.2493635
200	0xbdd56319	-0.10419292
201	0x3c5707f0	0.013124451
202	0xbe22bb9b	-0.15891878
203	0x3f11867d	0.5684584
204	0xbde74527	-0.11292487
205	0x3e1b9654	0.15194064
206	0x3df3a5f6	0.11896889
207	0xbe3d002e	-0.184571
208	0x3e376ec9	0.17913355
209	0x3e97411f	0.2954187
210	0x3e3f489f	0.18680046
211	0x3e912e37	0.28355572
212	0x3e058d1e	0.13042113
213	0x3d0744fd	0.033024777
214	0xbd1476f2	-0.036246248
215	0xbdc37d07	-0.095453314
216	0xbd54072e	-0.05176466
217	0x3fd623c5	1.6729666
218	0xbe1105cc	-0.14162368
219	0x3d939b2d	0.07207332
220	0xbe4478fc	-0.19186777
221	0xbdfe0be0	-0.12404609
222	0x3e2dfa0e	0.1698992
223	0x3e4e4f4c	0.20147437
224	0xbda65d8b	-0.08123311
225	0x3f4f169d	0.8089388
226	0xb9278afb	-0.00015978135
227	0x3eed0c14	0.46298277
228	0xbe2ed9e5	-0.17075308
229	0xbe978b7e	-0.29598612
230	0x3e71d09a	0.23614731
231	0xbdc98be4	-0.09841135
232	0xbe4e204d	-0.2012951
233	0x3df751e3	0.120761655
234	0xbe3e0694	-0.18557197
235	0xbd7b4e8a	-0.061354198
236	0x3dde9611	0.10868467
237	0x3ec3fef6	0.38280457
238	0x3e41d278	0.18927944
239	0x3e0657ec	0.13119477
240	0xbcd6a34b	-0.026200911
241	0xbd9db0f5	-0.076997675
242	0x3e2ffb22	0.17185643
243	0x3f4e0486	0.8047565
244	0x3e5d5ceb	0.21617477
245	0x3faa3315	1.3296839
246	0x3dc37efa	0.09545703
247	0x3ddba390	0.107245564
248	0xbe74b8fb	-0.2389869
249	0x3e5e3e25	0.21703394
250	0x3d572f85	0.052535553
251	0xbe35c2d6	-0.17750105
252	0x3f81c152	1.0137122
253	0xbf343d19	-0.7040573
254	0x3dc79e86	0.09747033
255	0x3c81d3c6	0.015848052

critic.0.bias f4 [64]
0	0xbe8b2249	-0.27174595
1	0x3e24a23e	0.16077515
2	0x3dcc60f6	0.09979431
3	0xbdcb8983	-0.09938338
4	0xbd00189e	-0.031273477
5	0x3d10885f	0.035286304
6	0x3d5348c5	0.05158307
7	0x3de25828	0.11051971
8	0x3ebe27ff	0.3713989
9	0xbe2aa0c0	-0.16662884
10	0x3eba3270	0.36366606
11	0xbdda0568	-0.106455624
12	0x3eeeac4c	0.46615827
13	0xbda94b5e	-0.08266328
14	0xbce83680	-0.0283463
15	0x3f039f31	0.5141478
16	0x3ea3b538	0.31974196
17	0xbc9db9c9	-0.019253628
18	0x3efa3319	0.4886711
19	0x3d8a6a9c	0.067586154
20	0x3c917fac	0.017761074
21	0x3e9c0e2d	0.30479565
22	0xbd8c5347	-0.068518214
23	0xbeaff757	-0.34368393
24	0xbf072cd0	-0.52802753
25	0x3e42c591	0.19020678
26	0x3f120455	0.5703786
27	0x3edfdadc	0.43721664
28	0xbe2fce40	-0.17168522
29	0x3ebcf235	0.3690354
30	0x3ea0d352	0.31411225
31	0x3f06ce97	0.5265898
32	0xbe555e57	-0.20836769
33	0x3ebf459e	0.373578
34	0x3ec5ead1	0.38655713
35	0x3e335518	0.1751293
36	0xbef3c11b	-0.47608265
37	0xbc0e8f00	-0.008701086
38	0x3e26cb82	0.1628857
39	0x3e8369e2	0.2566672
40	0x3f27792f	0.65419286
41	0x3ea8f29d	0.329976
42	0xbd53056f	-0.051518854
43	0xbdd5d873	-0.10441675
44	0x3e211a64	0.15732723
45	0x3e91c158	0.28467822
46	0x3ca043f1	0.019563647
47	0x3e57906e	0.2105119
48	0xbeadec06	-0.33969134
49	0xbf09eee1	-0.53880125
50	0xbdc98679	-0.09840102
51	0x3eb1e313	0.34743556
52	0xbdf4b01f	-0.11947655
53	0x3e26101a	0.1621708
54	0x3eead11b	0.4586266
55	0x3c589ae4	0.013220523
56	0xbe413593	-0.18868093
57	0x3e229329	0.1587645
58	0x3e7aa77a	0.2447795
59	0x3e7e7348	0.24848664
60	0xbdbe7039	-0.092987485
61	0x3ef7d564	0.48404992
62	0x3d4652da	0.048418857
63	0x3ea8cac0	0.32967186

critic.2.weight f4 [64, 64]
0	0xbeefc34c	-0.46828687
1	0x3ddecca2	0.10878874
2	0xbeb16021	-0.34643653
3	0x3f5fc74d	0.87413484
4	0xbe55e339	-0.2088746
5	0x3f782b4e	0.9694108
6	0x3f7e1514	0.9925091
7	0x3e4b1ac3	0.19834428
8	0x3ea7cc4f	0.32773063
9	0x3e92bc7e	0.28659433
10	0x3f2ec665	0.68271476
11	0xbd04b50e	-0.03239923
12	0x3cc61ab8	0.024182662
13	0xbe96dca0	-0.294652
14	0x3e9e8ce3	0.30966863
15	0x3efc9bd3	0.49337634
16	0x3fc324ff	1.5245665
17	0x3f07306a	0.5280825
18	0x3e4d9e99	0.20080031
19	0x3e38a38e	0.18031141
20	0xbe24b3a8	-0.16084158
21	0x3f187b29	0.5956293
22	0xc03dc0cb	-2.9648921
23	0xbf677ce8	-0.90424967
24	0xbee5446a	-0.44778758
25	0xbe6acfdd	-0.22930856
26	0x3dc214ff	0.09476661
27	0x3f1ba89e	0.60804164
28	0xc009b983	-2.1519477
29	0xbdce46fd	-0.10072134
30	0xbec4b5a8	-0.38419843
31	0x3e6eb8a2	0.2331262
32	0xbf167dd5	-0.58785754
33	0xbe9ca5dc	-0.3059529
34	0x3f0376b4	0.51353
35	0xbe3f3e1c	-0.18676037
36	0xbec9f205	-0.3944246
37	0xbfbb8b5b	-1.4651903
38	0x3f17df54	0.59325147
39	0x3e904cd0	0.28183603
40	0x3e073e22	0.13207296
41	0x3f2f8b91	0.68572336
42	0xbfd29b5f	-1.6453665
43	0x3c169fee	0.009193404
44	0x3fa10ba6	1.258168
45	0x3ec9e115	0.39429536
46	0xbd3c7bb8	-0.046016425
47	0x3f29efee	0.6638173
48	0xbf1894ba	-0.5960194
49	0xbee78647	-0.45219633
50	0xbe798d96	-0.24370417
51	0x3faee1d5	1.3662668
52	0x3ee5fc33	0.44918975
53	0xbe8d4f0d	-0.27599373
54	0x3f19d084	0.60083795
55	0x3e8ba396	0.27273244
56	0xbe9d8161	-0.3076277
57	0x3ef9d20c	0.48793066
58	0xbe941912	-0.28925377
59	0x3e25a188	0.161749
60	0x3e9c940f	0.3058171
61	0x3ef9293c	0.48664272
62	0xbe50620f	-0.20349906
63	0xbe84c7cd	-0.25933686
64	0xbde0b78f	-0.10972511
65	0xbc8ed950	-0.017437607
66	0x3eaa20cd	0.3322815
67	0x3dfe8763	0.12428167
68	0x3e3d2bb8	0.18473709
69	0xbe9f237b	-0.31081757
70	0xbd3ca114	-0.046052054
71	0xbd1c1872	-0.03810925
72	0xbd20091c	-0.039071187
73	0xbebbbf7c	-0.36669528
74	0x3d9f8686	0.0778933
75	0xbf3778bb	-0.71668595
76	0x3e516774	0.2044962
77	0x3e5a1709	0.2129785
78	0xbe93f0c0	-0.28894615
79	0x3c9132a7	0.017724348
80	0xbeb74340	-0.35793495
81	0xbf3e3399	-0.7429748
82	0x3e22174e	0.15829203
83	0xbf4ee065	-0.8081115
84	0xbf15b130	-0.5847349
85	0xbcf61c19	-0.030042695
86	0x3e9aa766	0.3020584
87	0x3d4c3995	0.049859602
88	0xbe81b851	-0.25335935
89	0x3eea61e0	0.45777798
90	0xba39f06e	-0.0007093017
91	0x3cf2f588	0.029658094
92	0xbd7f6a4f	-0.062357243
93	0x3e41e8cb	0.1893646
94	0x3f2493d2	0.64288056
95	0x3ea7b959	0.32758597
96	0xbe5e43d4	-0.21705562
97	0x3e287ba9	0.16453423
98	0xbdf61378	-0.12015432
99	0x3e9df157	0.3084819
100	0xbeb7b499	-0.35879973
101	0x3eae04f4	0.33988154
102	0xbe81015e	-0.25196356
103	0x3dbd3b11	0.09239782
104	0x3e128f58	0.14312494
105	0xbd557b4b	-0.052119534
106	0x3e1b3b55	0.15159352
107	0x3e10a952	0.1412709
108	0xbe34923d	-0.1763391
109	0xbe903ab5	-0.2816979
110	0xbe87ea45	-0.2654592
111	0xbe2cdd97	-0.16881405
112	0xbe84d24f	-0.25941703
113	0xbe9187d0	-0.2842393
114	0xbdec3188	-0.11532885
115	0xbdf0b862	-0.11753918
116	0xbebb8672	-0.3662601
117	0x3f01ec82	0.5075151
118	0x3daf7589	0.0856734
119	0x3e7902d5	0.24317487
120	0xbf042867	-0.5162415
121	0xbe8efc86	-0.27927035
122	0x3f2b8a1b	0.6700761
123	0x3e2a0f4f	0.16607402
124	0xbec5eacb	-0.38655695
125	0x3e81fe3d	0.2538928
126	0x3e6685a2	0.22511914
127	0x3e2a011c	0.16601986
128	0x3f27917d	0.6545637
129	0x3d4bfd0c	0.04980187
130	0xbdd21952	-0.10258736
131	0xbf05daf6	-0.5228723
132	0x3f3bf9fa	0.7342831
133	0xbf97d096	-1.186053
134	0xbf5a42f2	-0.852584
135	0xbf122bf1	-0.570983
136	0x3e21a776	0.15786538
137	0xbe8aa2c2	-0.270773
138	0xbf5a7edd	-0.8534983
139	0x3dcc18fc	0.09965703
140	0x3e2a92b9	0.16657533
141	0xbe070825	-0.131867
142	0xbf4419ba	-0.76601756
143	0xbf4542ed	-0.77055246
144	0xbf838888	-1.0276041
145	0xbf4f7fad	-0.8105419
146	0xbde1947f	-0.110146515
147	0xbd844297	-0.064580135
148	0x3e78f615	0.24312623
149	0xbf8b46e8	-1.0881014
150	0x3f65c574	0.89754415
151	0x3ed102b3	0.40822372
152	0x3f229ec7	0.63523525
153	0xbe38f102	-0.18060687
154	0xbe4c02c3	-0.19922929
155	0xbf80a05f	-1.0048941
156	0x3f5390c2	0.8264276
157	0x3f2249e5	0.63394004
158	0xbec1e5b0	-0.3787055
159	0x3e29ef41	0.16595174
160	0x3f4d4c1e	0.8019427
161	0x3ece3756	0.40276593
162	0xbf627d91	-0.8847285
163	0xbe85f17d	-0.26160803
164	0x3f39738d	0.7244194
165	0x3f179784	0.5921557
166	0xbf815fde	-1.0107381
167	0xbd1c466f	-0.03815311
168	0x3ca4b22a	0.020104486
169	0xbf89a127	-1.0752305
170	0x3f787527	0.9705376
171	0x3ebe3c13	0.37155208
172	0xbf9ff1ae	-1.249563
173	0xbea0a727	-0.31377527
174	0x3ea099d8	0.31367373
175	0xbf70ee05	-0.9411319
176	0x3eec10cf	0.46106574
177	0x3e23299a	0.15933838
178	0x3ea6fbbd	0.32613936
179	0xbfaeb5f6	-1.364928
180	0xbf831db9	-1.0243446
181	0xbda700f5	-0.081544794
182	0xbf6670bc	-0.9001577
183	0xbf1da8e4	-0.6158583
184	0x3f16180f	0.5863046
185	0xbf8967b4	-1.0734773
186	0xbe6823b4	-0.2266987
187	0xbe9b0a60	-0.30281353
188	0xbf30a777	-0.6900553
189	0xbf36f8db	-0.71473473
190	0xbe9371c1	-0.28797725
191	0x3e810e16	0.2520606
192	0x3ee33c24	0.4438182
193	0x3bf7b3bc	0.007559268
194	0xbe1cb9fc	-0.15305322
195	0xbf4064da	-0.7515389
196	0x3f0dfc4e	0.5546311
197	0xbec700fd	-0.38867941
198	0xbe3d058e	-0.1845915
199	0xbf07f9f7	-0.5311579
200	0x3dc21704	0.09477046
201	0x3d482303	0.048861515
202	0xbc8d5f62	-0.017257396
203	0xbdcae9ba	-0.09907861
204	0x3e9360f2	0.287849
205	0xbe82c3c0	-0.2553997
206	0xbc907bce	-0.01763716
207	0xbdade8c1	-0.0849166
208	0xbf4bcf67	-0.79613346
209	0xbebb5b2b	-0.36592993
210	0x3e2c4a11	0.16825129
211	0xbdcc0bd0	-0.099631906
212	0xbd3b44ea	-0.04572002
213	0xbe518f7e	-0.20464894
214	0x3f989290	1.1919727
215	0x3f18c76c	0.59679294
216	0x3e421670	0.18953872
217	0xbda50ac4	-0.08058694
218	0x3e6e8168	0.23291552
219	0xbc337449	-0.0109530175
220	0x3f80ea64	1.007153
221	0x3e144bc0	0.14482021
222	0x3d0e1a8b	0.034693282
223	0x3e1fbd19	0.15599479
224	0x3e912b46	0.28353328
225	0x3de22afc	0.11043355
226	0xbd6a38ab	-0.05718295
227	0xbe1b9ea0	-0.1519723
228	0x3d2ced66	0.04221859
229	0x3f45d855	0.7728322
230	0xbe5401ee	-0.20703861
231	0x3e409239	0.1880578
232	0x3e832152	0.2561136
233	0xbecd87df	-0.40142724
234	0x3f95f0db	1.1714128
235	0x3e1fab26	0.15592632
236	0xbf1864ca	-0.5952879
237	0x3db8b221	0.090183504
238	0x3e9f6d70	0.31138182
239	0x3d2bc5d3	0.041936707
240	0x3e94936b	0.2901872
241	0x3dbfc913	0.09364524
242	0x3db955c7	0.09049564
243	0xbed4528f	-0.41469237
244	0xbddceab7	-0.10786956
245	0x3de4429d	0.11145518
246	0xbe915dd7	-0.28391907
247	0xbef0de38	-0.4704454
248	0x3ddd863a	0.10816617
249	0xbd1c9865	-0.038231272
250	0xbdf9cef4	-0.12197676
251	0xbe024875	-0.12722953
252	0x3d45eab6	0.04831954
253	0xbc199ff0	-0.009376511
254	0xbe245e12	-0.1605151
255	0x3e5fdfb7	0.21862684

critic.2.bias f4 [64]
0	0x3dbfe298	0.09369391
1	0x3e5a091d	0.21292539
2	0x3daf8fb2	0.085723296
3	0x3ed1b204	0.40956128
4	0x3d409cac	0.047024414
5	0x3e9c44e5	0.30521312
6	0x3d88c4b0	0.0667814
7	0xbd8cc750	-0.06873953
8	0xbe88afde	-0.26696676
9	0x3d083d43	0.03326155
10	0x3eb6bb98	0.35689998
11	0x3ec5c4b1	0.38626626
12	0xbc352b54	-0.0110576935
13	0xbe92a6f3	-0.28642997
14	0x3eaefa34	0.34175265
15	0xbde8cfca	-0.113677576
16	0xbe2b3868	-0.16720736
17	0x3da36795	0.07978741
18	0x3e8a97c0	0.270689
19	0x3da22816	0.07917802
20	0x3e2fbed8	0.17162645
21	0x3e966264	0.2937194
22	0x3e84a124	0.2590419
23	0x3ebd270e	0.3694386
24	0xbd69cdee	-0.057081155
25	0x3ec3d1b0	0.38245916
26	0x3e79ed6a	0.24406973
27	0x3ebbe83a	0.36700612
28	0x3ed199d0	0.40937662
29	0x3ec1ea1d	0.37873927
30	0x3e561be9	0.20909084
31	0xbcde32e7	-0.027123882
32	0x3ecc8945	0.39948478
33	0x3e3c5e8a	0.18395439
34	0xbdaa83cd	-0.0832592
35	0xbde02966	-0.10945396
36	0x3d88bc4f	0.06676542
37	0x3defa080	0.11700535
38	0x3e945d9f	0.28977677
39	0x3e38037c	0.17970079
40	0x3eb9b335	0.36269537
41	0x3e84c0ae	0.25928253
42	0xbe85fe97	-0.261708
43	0x3e8bdfef	0.27319285
44	0xbdce62f2	-0.10077466
45	0x3ee1fc7c	0.44137943
46	0xbe25ac12	-0.16178921
47	0x3e7da6b6	0.24770626
48	0xbe1f2e0e	-0.15544912
49	0xbe30180c	-0.17196673
50	0xbe31dd7f	-0.1736965
51	0x3e087395	0.13325341
52	0x3e15315d	0.14569612
53	0x3e1cc733	0.15310363
54	0xbde9a332	-0.1140808
55	0x3e9d8f89	0.3077357
56	0xbe43e40d	-0.19129963
57	0x3e9ec2b4	0.31007922
58	0x3eb8e0a8	0.361089
59	0x3eddcee4	0.43321908
60	0xbba899a5	-0.005145269
61	0x3dc5fdf6	0.0966758
62	0x3da355a3	0.07975318
63	0xbd150953	-0.036385845

critic.4.weight f4 [1, 64]
0	0x3f811ac3	1.0086292
1	0xbee252f2	-0.44203907
2	0x3f202925	0.6256278
3	0xbf91b977	-1.1384724
4	0x3f59ca86	0.8507465
5	0xbfb263cb	-1.3936704
6	0x3f6cbd8b	0.9247672
7	0x3f60b91b	0.8778245
8	0x3f42b126	0.7605156
9	0xbf83d3ca	-1.0299008
10	0xbee1d183	-0.44105157
11	0xbefc8c09	-0.49325588
12	0x3f33311a	0.699968
13	0x3f728baa	0.9474436
14	0x3f5a39e9	0.85244614
15	0x3f60ee9f	0.87864107
16	0x3f2155a0	0.6302128
17	0x3f3f9163	0.7483122
18	0x3f5d84c5	0.86530715
19	0x3ef20958	0.47272754
20	0x3f389616	0.7210401
21	0xbf00d8ad	-0.5033062
22	0x3f6021ca	0.8755156
23	0xbefb3408	-0.49063134
24	0x3f1041d1	0.5635043
25	0xbf464e5a	-0.77463305
26	0xbf1f3a68	-0.62198496
27	0xbf038737	-0.51378196
28	0x3f5d18ac	0.8636577
29	0xbefc4e80	-0.4927864
30	0xbf990cad	-1.1956993
31	0x3f1ed584	0.6204455
32	0xbf9b84e5	-1.2149931
33	0xbf9a93c9	-1.207635
34	0x3f15a1a2	0.5844976
35	0x3f55f087	0.8357014
36	0x3f7abbb5	0.9794267
37	0x3f4d6e19	0.8024612
38	0xbeedd9cb	-0.46455225
39	0x3f6e052f	0.9297666
40	0xbef68805	-0.4815065
41	0xbefdbab0	-0.49556494
42	0x3f6eaa29	0.93228394
43	0x3f1551bc	0.5832784
44	0x3f465b13	0.7748272
45	0xbef01cd2	-0.46896988
46	0x3f7ff06f	0.9997625
47	0x3f7d077e	0.9883956
48	0x3f612cfd	0.8795927
49	0x3f44a78e	0.7681817
50	0x3f6bbb65	0.92082816
51	0xbf99f053	-1.2026466
52	0x3f682dbf	0.90694803
53	0xbfa9bec2	-1.326134
54	0x3f677782	0.9041673
55	0x3f51b3d1	0.81915003
56	0x3f6e3161	0.93044096
57	0xbf9fe5f5	-1.2492052
58	0xbfbf6722	-1.4953349
59	0xbee856f0	-0.45378828
60	0x3efefb20	0.49800968
61	0x3f7a3fae	0.9775342
62	0x3f8113b2	1.0084136
63	0x3f0a5ca9	0.5404764

exp_avg f4 [6]
0	0x39b19703	0.00033872583
1	0x3900e1e6	0.00012291185
2	0x392146ce	0.00015380533
3	0x392a55ef	0.00016244476
4	0xb99a16e2	-0.00029390218
5	0xb898f596	-7.293669e-05

exp_avg_sq f4 [6]
0	0x3a1a26d8	0.0005880422
1	0x37142974	8.831139e-06
2	0x36179fb5	2.2593715e-06
3	0x35cd3810	1.5290007e-06
4	0x37fbc976	3.0015344e-05
5	0x351d7c5a	5.8668013e-07

exp_avg f4 [64, 28]
0	0x39a49f82	0.0003139936
1	0x386f8a28	5.711071e-05
2	0xb8ad2f8b	-8.2581384e-05
3	0x3945dc24	0.00018869393
4	0xb802826f	-3.111589e-05
5	0xb8bfac81	-9.139721e-05
6	0x38218ec5	3.8518356e-05
7	0xb7f5fd2e	-2.9324172e-05
8	0xb854f9a5	-5.077724e-05
9	0x380174d4	3.08648e-05
10	0xb6ac028d	-5.1262964e-06
11	0xb768759b	-1.385566e-05
12	0x3956ad40	0.00020473171
13	0x392bb309	0.00016374527
14	0x3900d3af	0.0001228589
15	0x3997c876	0.0002895032
16	0x00000000	0.0
17	0x00000000	0.0
18	0x3997c876	0.0002895032
19	0x36a0103d	4.770262e-06
20	0x38016199	3.084689e-05
21	0xb7f8f6de	-2.967886e-05
22	0x3a2878ae	0.0006426674
23	0x380d9a08	3.3760472e-05
24	0xb9630061	-0.00021648548
25	0x39c63b19	0.00037809534
26	0xb88027ba	-6.110915e-05
27	0xb946aa2c	-0.00018946145
28	0xb83969cc	-4.4205968e-05
29	0xb7250135	-9.835047e-06
30	0x3737dd24	1.0959138e-05
31	0xb7e45810	-2.7220725e-05
32	0x36852f2c	3.9692004e-06
33	0x375ed8e5	1.3282731e-05
34	0xb772eb81	-1.4479157e-05
35	0x35b94b07	1.380541e-06
36	0x374415a1	1.1687546e-05
37	0xb74c2aba	-1.2169296e-05
38	0x3545f754	7.374813e-07
39	0x369ed426	4.7334643e-06
40	0xb81dd212	-3.762736e-05
41	0xb7fc736f	-3.0094494e-05
42	0xb7bd6a4c	-2.2580054e-05
43	0xb85f2afb	-5.3207372e-05
44	0x00000000	0.0
45	0x00000000	0.0
46	0xb85f2afb	-5.3207372e-05
47	0xb5eb203f	-1.7518249e-06
48	0xb6d84a59	-6.445957e-06
49	0x3655a499	3.1835282e-06
50	0xb8cb7423	-9.7014265e-05
51	0xb711e4af	-8.695918e-06
52	0x380b306b	3.3185275e-05
53	0xb87547ce	-5.8479425e-05
54	0x36f1e74b	7.2092857e-06
55	0x37fa8113	2.9862427e-05
56	0xb7afdc68	-2.096426e-05
57	0xb689d877	-4.108118e-06
58	0x36b012ed	5.247412e-06
59	0xb7586698	-1.289849e-05
60	0x36133d46	2.1940373e-06
61	0x36c73c08	5.9376507e-06
62	0xb685c06e	-3.9861106e-06
63	0x36100d02	2.1465244e-06
64	0x36c54d04	5.8800233e-06
65	0xb687c31e	-4.046028e-06
66	0x333b224c	4.3570523e-08
67	0x35518c62	7.806285e-07
68	0xb78df5c5	-1.6922955e-05
69	0xb7631488	-1.3535035e-05
70	0xb72a612a	-1.0155412e-05
71	0xb7c8bd77	-2.3930084e-05
72	0x00000000	0.0
73	0x00000000	0.0
74	0xb7c8bd77	-2.3930084e-05
75	0xb60cbb86	-2.0970779e-06
76	0x344f044a	1.9279938e-07
77	0x363abba0	2.7825372e-06
78	0xb83dab1f	-4.522048e-05
79	0xb688ac6c	-4.0731884e-06
80	0x378441c2	1.5766247e-05
81	0xb7e484b3	-2.724151e-05
82	0x368e575f	4.242101e-06
83	0x375ef7ce	1.3289928e-05
84	0xb868ce02	-5.550497e-05
85	0xb744c613	-1.1728628e-05
86	0x3771e4e2	1.441801e-05
87	0xb80f5b62	-3.4178964e-05
88	0x36a9fb66	5.065859e-06
89	0x378ae706	1.655846e-05
90	0xb7a7f544	-2.0022162e-05
91	0x36735170	3.6257225e-06
92	0x37890adf	1.6336735e-05
93	0xb7809ba3	-1.5331263e-05
94	0x354884c6	7.4699017e-07
95	0x36b48c8d	5.3807803e-06
96	0xb833346a	-4.272574e-05
97	0xb80f5421	-3.4172208e-05
98	0xb7d71498	-2.5639587e-05
99	0xb87d6812	-6.0416824e-05
100	0x00000000	0.0
101	0x00000000	0.0
102	0xb87d6812	-6.0416824e-05
103	0xb5d57010	-1.5902351e-06
104	0xb6ea9189	-6.990686e-06
105	0x36a67e93	4.9619207e-06
106	0xb8f70348	-0.00011778489
107	0xb7133d7c	-8.776198e-06
108	0x382a23ec	4.0564613e-05
109	0xb894fb3f	-7.103988e-05
110	0x3720be50	9.581054e-06
111	0x38163c74	3.581909e-05
112	0x38ee097a	0.000113504895
113	0x37c769f6	2.377199e-05
114	0xb7f4fa2a	-2.9203558e-05
115	0x3890bf26	6.902059e-05
116	0xb7260fee	-9.89808e-06
117	0xb80d78c1	-3.372948e-05
118	0x37ed9df8	2.8326162e-05
119	0xb6e38c01	-6.781426e-06
120	0xb7ce77c2	-2.461288e-05
121	0x37d08785	2.4858638e-05
122	0xb5e20a61	-1.6841333e-06
123	0xb707ab93	-8.086575e-06
124	0x38b24c4b	8.501912e-05
125	0x388e9a78	6.79986e-05
126	0x3855fdfb	5.1019695e-05
127	0x38fc1fcc	0.00012022219
128	0x00000000	0.0
129	0x00000000	0.0
130	0x38fc1fcc	0.00012022219
131	0xb5476b92	-7.428981e-07
132	0x3797231d	1.8016954e-05
133	0xb6c851af	-5.9699737e-06
134	0x397c49db	0.00024060106
135	0x379196b5	1.7355525e-05
136	0xb8aba7ab	-8.185146e-05
137	0x3916a92e	0.00014368139
138	0xb79dddf7	-1.8819219e-05
139	0xb8973bce	-7.2113806e-05
140	0xb85e8173	-5.3049484e-05
141	0xb732e102	-1.06620155e-05
142	0x3764ee4e	1.3645344e-05
143	0xb8064f43	-3.2021908e-05
144	0x3697da5a	4.52557e-06
145	0x3783e626	1.5723588e-05
146	0xb719f358	-9.1761685e-06
147	0x36512e7b	3.1170482e-06
148	0x3704344f	7.879992e-06
149	0xb70fab98	-8.5634165e-06
150	0x3597457f	1.1270603e-06
151	0x364af365	3.024202e-06
152	0xb81f34c6	-3.7957703e-05
153	0xb7feaadb	-3.035872e-05
154	0xb7bf140c	-2.277831e-05
155	0xb861208e	-5.36745e-05
156	0x00000000	0.0
157	0x00000000	0.0
158	0xb861208e	-5.36745e-05
159	0x35c48db2	1.4644377e-06
160	0xb7193d30	-9.133757e-06
161	0x360fd1a9	2.1430699e-06
162	0xb8eabd6d	-0.00011193273
163	0xb7032e3e	-7.818975e-06
164	0x381d9057	3.7566144e-05
165	0xb88b13ec	-6.631747e-05
166	0x37123b00	8.716015e-06
167	0x380bafcb	3.3303902e-05
168	0xb9055af8	-0.00012717757
169	0xb7d01cb4	-2.4808898e-05
170	0x380a55f7	3.2981825e-05
171	0xb8a124d7	-7.68394e-05
172	0x37489eb6	1.1957882e-05
173	0x381d348f	3.7480666e-05
174	0xb7be39b2	-2.2676631e-05
175	0x3729339c	1.0085201e-05
176	0x37c1d13e	2.3104829e-05
177	0xb79e0f04	-1.884206e-05
178	0x3624e3f1	2.4570584e-06
179	0x370f9e34	8.560299e-06
180	0xb8bc968b	-8.9925794e-05
181	0xb896d55d	-7.1922994e-05
182	0xb8625798	-5.3964177e-05
183	0xb9055666	-0.00012716054
184	0x00000000	0.0
185	0x00000000	0.0
186	0xb9055666	-0.00012716054
187	0xb59ccc99	-1.1682451e-06
188	0xb78a0fa6	-1.6458169e-05
189	0x3727b60d	9.996363e-06
190	0xb98b0359	-0.0002651464
191	0xb788d221	-1.6310312e-05
192	0x38bc2372	8.971141e-05
193	0xb9249f3b	-0.00015699577
194	0x37c151f2	2.3045552e-05
195	0x38a6206e	7.921537e-05
196	0x3831305b	4.2245123e-05
197	0x36754a60	3.6551137e-06
198	0xb7498ad1	-1.2012854e-05
199	0x37ca81e9	2.414077e-05
200	0xb6b7ff97	-5.4835796e-06
201	0xb73cdaf4	-1.1256652e-05
202	0xb7924fea	-1.744177e-05
203	0xb72ff2f2	-1.0487378e-05
204	0x3678b6dc	3.7061318e-06
205	0xb77ab395	-1.4942973e-05
206	0xb5803604	-9.552464e-07
207	0x36c36a34	5.8238165e-06
208	0x374d9173	1.2252817e-05
209	0x37246a0c	9.799853e-06
210	0x36f6b8ca	7.3528836e-06
211	0x379157ce	1.7326234e-05
212	0x00000000	0.0
213	0x00000000	0.0
214	0x379157ce	1.7326234e-05
215	0x357e6a50	9.477708e-07
216	0xb681bbb0	-3.8663493e-06
217	0xb71c6cda	-9.323669e-06
218	0x389f6db0	7.602142e-05
219	0xb5e5217f	-1.7071578e-06
220	0xb7cf9905	-2.4747578e-05
221	0x382f9700	4.186388e-05
222	0xb745b710	-1.1784738e-05
223	0xb7a6ba4d	-1.9875495e-05
224	0x36567e36	3.196195e-06
225	0xb6307c2c	-2.6298321e-06
226	0xb5b269eb	-1.329286e-06
227	0x352a43da	6.342867e-07
228	0xb58bdedb	-1.0421167e-06
229	0xb332b22d	-4.1605904e-08
230	0xb7b76c2b	-2.186567e-05
231	0xb6ca272e	-6.0246302e-06
232	0x37305ded	1.0512286e-05
233	0xb7914475	-1.7317225e-05
234	0xb4a8e794	-3.1460934e-07
235	0x36f318de	7.2448593e-06
236	0xb735bcec	-1.08324275e-05
237	0xb7115ad1	-8.663818e-06
238	0xb6da1ef0	-6.500508e-06
239	0xb7807e8b	-1.5317715e-05
240	0x00000000	0.0
241	0x00000000	0.0
242	0xb7807e8b	-1.5317715e-05
243	0xb4e01395	-4.17375e-07
244	0xb6990dc6	-4.5613588e-06
245	0xb5a6bdee	-1.2423241e-06
246	0xb5dc406d	-1.6410028e-06
247	0xb68efcaa	-4.2613437e-06
248	0x35e0bb2e	1.6743777e-06
249	0xb677e2fa	-3.6937986e-06
250	0xb6437b7e	-2.9129146e-06
251	0x3636d270	2.7242604e-06
252	0x3940fe1f	0.00018405214
253	0x380efcc6	3.4090852e-05
254	0xb84c4a3f	-4.8706537e-05
255	0x38e8fa00	0.00011109188
