sample/ur_reach/model_random_1499.pt (torch, 712565 bytes, 54 tensors)

std f4 [6]
0.007828195 0.013938058 0.016705131 0.021961313 0.023300074 0.02538201
00000000: d441 003c 745c 643c 33d9 883c 36e8 b33c
00000010: ccdf be3c efed cf3c

actor.0.weight f4 [128, 28]
0.086921126 0.30116963 0.18906544 0.37164682 -0.14673835 0.18992525 -0.13470754 0.15780337
0.3562657 -0.1072158 0.13574222 -0.049314324 0.20515224 0.060320266 -0.08921538 -0.017077694
0.14568372 0.027933259 -0.06024794 0.034916036 -0.004249723 -0.13971712 -0.36511222 0.11082154
-0.24470864 -0.13215242 -0.024017164 -0.35908106 -0.31631464 -0.20004696 0.22922024 -0.18229209
0.069121495 -0.117030695 0.09772523 -0.025342032 0.09180401 -0.03252103 -0.030061869 -0.11033181
0.20089877 -0.020326976 0.24923444 0.19827954 0.10924298 -0.08261784 0.11207271 -0.27834332
0.016998345 0.07294112 -0.095609106 -0.08299604 -0.13274275 -0.010854526 0.03659114 0.26596153
-0.0029421386 0.1707927 0.2961762 0.062206335 0.092710316 0.044979673 0.03674134 0.073756814
0.015746605 0.027847908 0.03859046 -0.046496585 -0.040413562 -0.2935379 0.16783844 0.14907818
0.18184829 -0.15596256 -0.16662389 -0.08108185 0.039162435 0.26941538 0.0016092855 0.16168614
-0.18144175 0.110437475 -0.018399473 -0.020377232 0.061514653 -0.13617486 0.03773105 -0.2059083
-0.18443066 -0.08306914 0.19670027 0.19789794 0.05866397 0.40137154 -0.29022 -0.21290092
0.05443167 -0.17970869 0.07780276 -0.04505518 -0.108224496 0.047208454 -0.0487677 0.05146621
-0.17005052 -0.18198827 -0.11578309 0.09568364 -0.071401566 0.13457784 0.4232971 0.1298915
0.22469503 -0.41393718 -0.19947468 -0.15613393 0.38205248 -0.37548554 -0.106738865 -0.06291524
-0.0062813265 0.08254029 -0.061660595 -0.0021191507 -0.056565326 -0.13235618 -0.116145834 -0.1158502
0.15845591 -0.037506178 0.1671571 0.16232194 -0.15345116 0.299964 -0.06373598 0.020091346
-0.18438062 -0.27631345 -0.106903985 0.21401815 0.10206993 -0.2544723 0.023529364 -0.12414297
-0.114627115 -0.27521905 0.05226913 0.18437977 0.024690317 -0.20216653 0.07820488 -0.2731559
-0.12508859 0.0462212 0.1188653 -0.10226083 0.10100179 0.06641584 0.081858106 -0.28426823
-0.079589814 0.1470614 -0.083065875 -0.20000046 0.08096774 0.1579579 -0.086343996 0.27857876
0.06348125 -0.116157345 -0.23175402 -0.117868684 0.1491089 0.15575139 -0.0862596 -0.13797115
-0.20120679 -0.10219086 0.012082651 -0.07975151 0.13429472 -0.028472489 -0.13868347 -0.052091964
0.09863779 0.099312656 0.0639706 -0.11950925 0.07687922 0.06557313 -0.02606617 0.0825348
0.015332267 0.16248126 0.086694196 -0.14833032 -0.34690613 0.05450644 0.0073697236 -0.21480654
-0.24897395 -0.16533028 0.10567516 -0.094253875 0.12138555 -0.051413316 0.20469852 0.045423057
0.106877156 0.20401923 0.20245996 0.04411785 -0.16704972 -0.11364682 -0.046613798 0.20313212
-0.43814054 0.04319543 0.050952144 -0.055818226 -0.033569727 0.24671686 -0.30611277 0.030352244
0.122212306 0.28418767 0.43197778 0.21572757 -0.13871995 0.15162213 -0.11149518 -0.055783756
0.024460245 0.013720246 0.052799392 0.0052762143 -0.03930511 -0.35385925 -0.2075433 -0.25048554
0.077362135 -0.092784226 -0.070825994 -0.13726263 0.047584537 -0.4741047 -0.35892305 -0.10984203
-0.16012262 -0.087574884 -0.033388313 -0.10307216 -0.16609615 -0.17359294 -0.008297979 -0.23802751
00000000: b403 b23d e832 9a3e 5f9a 413e 7e48 be3e
00000010: 9442 16be c47b 423e c6f0 09be 3597 213e
00000020: 7568 b63e f593 dbbd 0200 0b3e d1fd 49bd
00000030: 6e13 523e 6212 773d 8eb6 b6bd 85e6 8bbc
00000040: 1d2e 153e 4ad4 e43c 8bc6 76bd 1e04 0f3d
00000050: 4341 8bbb 0112 0fbe fdef babe 67f6 e23d
00000060: e794 7abe f752 07be a5bf c4bc 79d9 b7be
00000070: fef3 a1be 1cd9 4cbe b6b8 6a3e c7aa 3abe
00000080: 928f 8d3d caad efbd 2a24 c83d 189a cfbc
00000090: be03 bc3d c634 05bd 4f44 f6bc a5f5 e1bd
000000a0: 68b8 4d3e c284 a6bc 5037 7f3e cb09 4b3e
000000b0: c9ba df3d 8b33 a9bd 6186 e53d 0483 8ebe
000000c0: 1d40 8b3c 2762 953d b5ce c3bd d4f9 a9bd
000000d0: b7ed 07be 2fd7 31bc 97e0 153d 1c2c 883e
000000e0: e5d0 40bb 48e4 2e3e 68a4 973e 12cc 7e3d
000000f0: e8de bd3d 9b3c 383d 167e 163d d00d 973d
00000100: 06ff 803c 4c21 e43c 0811 1e3d 3473 3ebd
00000110: b188 25bd 9a4a 96be d7dd 2b3e f3a7 183e
00000120: 7036 3a3e a6b4 1fbe 749f 2abe 3e0e a6bd
00000130: ca68 203d d0f0 893e a9ee d23a 0d91 253e
00000140: decb 39be 0b2d e23d 7eba 96bc 27ee a6bc
00000150: caf6 7b3d 6c71 0bbe e08b 1a3d a0d9 52be
00000160: 64db 3cbe 2720 aabd cc6b 493e c2a5 4a3e
00000170: a249 703d 9280 cd3e b797 94be b302 5abe
00000180: bef3 5e3d 8e05 38be 0e57 9f3d c88b 38bd
00000190: cea4 ddbd a75d 413d a4c0 47bd 3cce 523d
000001a0: b921 2ebe 225b 3abe af1f edbd c9f5 c33d
000001b0: fc3a 92bd c6ce 093e 66ba d83e 4702 053e
000001c0: 7416 663e 93ef d3be 1743 4cbe 93e1 1fbe
000001d0: 629c c33e a43f c0be e899 dabd b5d9 80bd
000001e0: 96d3 cdbb e20a a93d d28f 7cbd 73e1 0abb
000001f0: 0bb1 67bd 6188 07be dedd edbd df42 edbd
00000200: 4442 223e 14a0 19bd 3b2b 2b3e b937 263e
00000210: 4d22 1dbe e294 993e 0288 82bd 9b96 a43c
00000220: 46ce 3cbe f578 8dbe 7af0 dabd 9327 5b3e
00000230: 0a0a d13d 314a 82be a7c0 c03c ab3e febd
00000240: 9fc1 eabd 83e9 8cbe 2818 563d 0dce 3c3e
00000250: 5943 ca3c be04 4fbe e129 a03d 17db 8bbe
00000260: 3917 00be 7152 3d3d a76f f33d 206e d1bd
00000270: 07da ce3d 0705 883d 39a5 a73d 9b8b 91be
00000280: fcff a2bd 4397 163e 711e aabd eccc 4cbe
00000290: 6ad2 a53d b7bf 213e 1fd5 b0bd e0a1 8e3e
000002a0: 7502 823d e7e3 edbd ed50 6dbe 2365 f1bd
000002b0: 01b0 183e 4b7d 1f3e e0a8 b0bd 4f48 0dbe
000002c0: 2709 4ebe 7149 d1bd 50f6 453c c254 a3bd
000002d0: 8e84 093e 233f e9bc 0a03 0ebe 625e 55bd
000002e0: 9c02 ca3d 6f64 cb3d 0503 833d 44c1 f4bd
000002f0: da72 9d3d 354b 863d b888 d5bc 0108 a93d
00000300: 3034 7b3c 7d61 263e ba8c b13d e7e3 17be
00000310: ae9d b1be 2542 5f3d b97d f13b 3ff6 5bbe
00000320: 07f3 7ebe 574c 29be 386c d83d 2d08 c1bd
00000330: fd98 f83d c596 52bd 7d9c 513e 870d 3a3d
00000340: 69e2 da3d 6bea 503e aa51 4f3e ebb4 343d
00000350: 150f 2bbe aabf e8bd 1cee 3ebd de01 503e
00000360: f553 e0be b1ed 303d 32b3 503d a7a1 64bd
00000370: 6980 09bd 58a3 7c3e d0ba 9cbe 45a5 f83c
00000380: 724a fa3d 0c81 913e 312c dd3e b0e7 5c3e
00000390: 9a0c 0ebe d542 1b3e 9657 e4bd 827d 64bd
000003a0: da60 c83c e2ca 603c 2d44 583d 18e4 ac3b
000003b0: 65fe 20bd 0a2d b5be 3b86 54be a43f 80be
000003c0: 0a70 9e3d a805 bebd 380d 91bd 938e 0cbe
000003d0: 01e8 423d dabd f2be c3c4 b7be dcf4 e0bd
000003e0: 2ff7 23be 765a b3bd 2fc2 08bd 7f17 d3bd
000003f0: 1c15 2abe 59c2 31be 3ff4 07bc 7cbd 73be

actor.0.bias f4 [128]
-0.14487101 -0.11128582 -0.3189136 -0.3535771 -0.027793221 -0.014952979 0.0085374825 -0.1121778
0.07557205 -0.21800898 0.07702418 -0.047539067 -0.5265998 0.09795441 -0.46406546 -0.4346279
-0.1127893 -0.3210554 0.09425601 -0.22984244 0.08594 -0.3978769 0.25653803 0.20072284
-0.29537615 -0.36728474 -0.44048402 -0.25167874 -0.043643627 0.25678575 -0.0023216882 0.17403907
-0.055296108 -0.3636362 -0.07232383 0.19027357 -0.42128238 0.038527343 0.019681046 -0.5128232
0.13369311 -0.33658367 0.03272492 -0.26963332 -0.27638263 0.20411606 0.2043531 -0.41256893
0.21064588 -0.1519713 0.08159972 0.14573409 0.16476956 0.19961658 0.17311823 0.23813413
-0.27352983 -0.0927506 -0.32519287 -0.30717912 -0.32966822 0.33870137 0.046626225 -0.36449805
-0.2751056 -0.1398533 -0.1536616 -0.23100248 0.14486244 -0.23454836 0.16407956 0.025412673
-0.0118021965 -0.27683088 0.084042855 -0.07552244 0.33800867 -0.45748958 -0.2834419 0.015470775
-0.21535876 -0.23758917 -0.11608844 -0.3816913 0.27360857 0.031121632 -0.43274614 -0.43423277
0.07193134 -0.3485588 -0.12605773 -0.017188026 -0.09158324 -0.42334262 0.03794235 -0.20985612
-0.30083835 -0.5013147 0.093232766 0.3982142 0.08917791 -0.3076925 -0.107723325 -0.056875553
-0.24066098 -0.3288281 0.08603294 -0.31860134 -0.31652746 -0.14766295 -0.32620856 -0.124669746
-0.18958813 -0.25200033 0.0711057 -0.092467494 -0.26537 0.028590461 0.109645486 -0.47693396
0.08115271 -0.20369186 0.066702165 -0.15320808 -0.028523784 -0.53705984 -0.2392348 0.10573265
00000000: 1159 14be d2e9 e3bd a548 a3be 0f08 b5be
00000010: 9cae e3bc 57fd 74bc cce0 0b3c 79bd e5bd
00000020: 85c5 9a3d bf3d 5fbe dabe 9d3d 53b8 42bd
00000030: 3fcf 06bf 529c c83d fd99 edbe 8c87 debe
00000040: 14fe e6bd 6061 a4be 4c09 c13d d15b 6bbe
00000050: 5001 b03d 85b6 cbbe f458 833e 4a8a 4d3e
00000060: 8b3b 97be bf0c bcbe 1f87 e1be 09dc 80be
00000070: a9c3 32bd 6c79 833e 7727 18bb 4c37 323e
00000080: 2c7e 62bd 862e babe 841e 94bd 13d7 423e
00000090: 53b2 d7be d9ce 1d3d 253a a13c 6248 03bf
000000a0: d9e6 083e b254 acbe 910a 063d 610d 8abe
000000b0: 0682 8dbe cd03 513e f041 513e 3c3c d3be
000000c0: 8eb3 573e 5d9e 1bbe c11d a73d 513b 153e
000000d0: 5ab9 283e 4a68 4c3e e845 313e 6fd9 733e
000000e0: 1a0c 8cbe 07f4 bdbd ae7f a6be 9546 9dbe
000000f0: 46ca a8be 446a ad3e 24fb 3e3d 7d9f babe
00000100: a4da 8cbe b435 0fbe 7759 1dbe ea8b 6cbe
00000110: d256 143e 722d 70be 7904 283e 3d2e d03c
00000120: 005e 41bc c7bc 8dbe a91e ac3d 82ab 9abd
00000130: 790f ad3e 133c eabe 4c1f 91be 2279 7d3c
00000140: 0287 5cbe 934a 73be c7bf edbd 0b6d c3be
00000150: 6c16 8c3e cbf2 fe3c e790 ddbe c253 debe
00000160: bd50 933d 4d76 b2be 4715 01be e7cd 8cbc
00000170: fe8f bbbd 5dc0 d8be 7069 1b3d 86e4 56be
00000180: 7c07 9abe 2956 00bf d2f0 be3d bbe2 cb3e
00000190: e8a2 b63d df89 9dbe 0c9e dcbd 57f6 68bd
000001a0: d56f 76be 285c a8be 0a32 b03d b71f a3be
000001b0: e30f a2be f534 17be cf04 a7be da52 ffbd
000001c0: 6423 42be 3006 81be de9f 913d 995f bdbd
000001d0: 94de 87be 8b36 ea3c d08d e03d b030 f4be
000001e0: 6433 a63d 9994 50be 259b 883d 94e2 1cbe
000001f0: b6aa e9bc c17c 09bf f8f9 74be 5c8a d83d

actor.2.weight f4 [128, 128]
0.12814276 0.06586242 0.13515855 -0.04389746 0.07733024 -0.14930719 -0.009458947 0.09770795
0.1002946 0.008501569 0.12890811 0.058589924 0.08048581 0.023463042 -0.069276765 0.43287772
0.010556688 0.29747298 -0.002034011 0.019551141 -0.101997346 0.1169096 -0.10166645 0.028653461
0.10593243 -0.11822111 0.20027612 0.05268726 -0.13670416 -0.17729558 -0.095495425 -0.0030292855
-0.0044696555 0.14503732 -0.14579242 0.03941963 -0.0011728128 0.13184652 0.14567892 -0.09408385
-0.26579767 -0.050862078 0.096381225 0.058096934 -0.0426517 -0.2439829 0.0004711612 0.14438535
-0.15697493 -0.062769875 -0.0820955 -0.053410877 0.085014 -0.23174088 0.019711573 -0.02214933
-0.0008022559 -0.017647648 -0.1304088 0.22734284 0.033102132 0.028069636 -0.031456105 0.046612788
0.17598782 -0.046963077 -0.0045663756 -0.08603449 -0.20691772 0.15471934 -0.11456533 0.0014113985
0.12890658 0.09497003 -0.0816528 -0.042687126 -0.23865402 0.0064661815 0.104286544 -0.26241195
-0.10642816 0.017635651 -0.18711567 -0.0714811 0.08146897 -0.113994986 0.07637898 0.29440802
-0.095916584 -0.04924829 -0.07457866 -0.10550118 0.064931504 -0.02930928 -0.10464253 -0.03592411
0.068445474 0.23812342 0.054006297 -0.16645673 -0.081960924 0.043890208 0.07108035 0.017943786
0.19382945 0.03098452 -0.029279826 -0.023821227 -0.014711898 -0.008185555 0.05704474 -0.12894724
0.22197036 0.20156127 -0.004791704 -0.046468884 -0.0635724 -0.2344388 -0.047988176 0.3964718
-0.029079258 0.053504203 0.021409491 -0.0685071 0.051702697 0.17670007 0.0943662 0.055780787
-0.20095871 0.022966467 0.059539117 -0.060496222 0.083878756 -0.010615811 -0.065085255 -0.11631007
-0.055566248 0.046079826 0.066578135 0.059886646 0.03263379 0.024638604 -0.17823932 0.08251211
-0.063524514 0.05982103 -0.019195464 0.15969963 -0.08053096 0.21230114 -0.002880344 0.0058114016
-0.019955736 -0.1470141 -0.01091292 0.032894664 -0.18751931 -0.13765393 -0.05737158 -0.037212603
-0.07667378 0.12921345 0.095685326 0.06719765 0.114217624 0.116564475 0.1314148 -0.1653584
0.03866527 -0.03592105 0.016196897 -0.102639936 0.1526803 -0.15158668 -0.18414262 0.12938839
0.17968227 -0.008676935 -0.0073376973 -0.02334705 0.10905416 -0.017196158 0.02148003 -0.012606321
-0.077754594 0.086148806 -0.16892259 0.08385729 0.19000584 -0.1997134 0.026241884 0.05859504
-0.04991753 -0.11689839 -0.020920489 0.0024881389 -0.097464554 -0.0069406657 0.0054098004 0.01999709
-0.05087447 0.026991347 0.10054626 -0.07749868 -0.013152329 -0.20351198 -0.062197674 -0.025080925
-0.03765854 0.06887266 0.081205405 0.0020985648 0.021167262 -0.09109344 0.0028328984 0.06590659
-0.036736447 0.050288573 0.053575587 0.11889259 0.050436027 0.043182734 0.054185707 -0.016097559
0.1402685 -0.12607007 0.081946805 -0.07555714 -0.1451422 0.11608098 0.21183243 -0.11289986
0.16239531 0.022085113 0.01000696 0.04998327 -0.015149295 -0.01611225 -0.007597875 0.06979019
0.036607463 -0.23798111 0.03766821 0.04735216 -0.0036621955 -0.0147902155 0.05258046 -0.011290606
-0.0090653775 -0.14450708 -0.03249232 -0.0024486154 0.006633562 0.14256564 0.062043525 0.0386046
00000000: db37 033e e0e2 863d 0167 0a3e d3cd 33bd
00000010: 515f 9e3d fce3 18be b3f9 1abc 1b1b c83d
00000020: 4167 cd3d 2a4a 0b3c 7d00 043e fdfb 6f3d
00000030: bfd5 a43d 9135 c03c fae0 8dbd 26a2 dd3e
00000040: f5f5 2c3c 614e 983e 0b4d 05bb b729 a03c
00000050: fce3 d0bd 4d6e ef3d 8036 d0bd aaba ea3c
00000060: 1af3 d83d e91d f2bd 2f15 4d3e 99ce 573d
00000070: 2dfc 0bbe f98c 35be 1b93 c3bd fa86 46bb
00000080: 3076 92bb aa84 143e 9c4a 15be 7a76 213d
00000090: 11b9 99ba c602 073e db2c 153e 09af c0bd
000000a0: a216 88be c154 50bd 8563 c53d 0df7 6d3d
000000b0: 8db3 2ebd a7d6 79be 3006 f739 c1d9 133e
000000c0: 09be 20be 7e8d 80bd af21 a8bd 5dc5 5abd
000000d0: d21b ae3d 7b4d 6dbe 2a7a a13c 8372 b5bc
000000e0: 7b4e 52ba cd91 90bc e289 05be 90cc 683e
000000f0: 1a96 073d 4bf2 e53c 1ed8 00bd 0ded 3e3d
00000100: 2736 343e 5b5c 40bd 89a1 95bb da32 b0bd
00000110: 3de2 53be bf6e 1e3e 3aa1 eabd adfe b83a
00000120: 1600 043e a67f c23d 9539 a7bd b2d8 2ebd
00000130: b861 74be 43e2 d33b 2f94 d53d dc5a 86be
00000140: 02f7 d9bd a478 903c 409b 3fbe af64 92bd
00000150: 34d9 a63d 3476 e9bd 956c 9c3d a6bc 963e
00000160: ea6f c4bd 93b8 49bd b2bc 98bd 0111 d8bd
00000170: cffa 843d 041a f0bc d34e d6bd 2925 13bd
00000180: 242d 8c3d a0d6 733e b535 5d3d a273 2abe
00000190: 21db a7bd 38c6 333d 9392 913d d9fe 923c
000001a0: 3a7b 463e 40d3 fd3c 3fdc efbc bc24 c3bc
000001b0: 2c0a 71bc b51c 06bc bfa7 693d bf0a 04be
000001c0: 334c 633e 1466 4e3e ba03 9dbb 2856 3ebd
000001d0: 3f32 82bd ba10 70be 408f 44bd 5afe ca3e
000001e0: a037 eebc 3927 5b3d f562 af3c 734d 8cbd
000001f0: 35c6 533d ddf0 343e 1143 c13d 657a 643d
00000200: 1fc8 4dbe 2c24 bc3c 4adf 733d e3ca 77bd
00000210: a0c8 ab3d f0ed 2dbc 6b4b 85bd f933 eebd
00000220: 6f99 63bd 33be 3c3d 1e5a 883d b34b 753d
00000230: 02ab 053d e6d6 c93c 5e84 36be 1cfc a83d
00000240: 2419 82bd e506 753d ce3f 9dbc 4d88 233e
00000250: 6aed a4bd 7865 593e 27c4 3cbb 926d be3b
00000260: 367a a3bc dd8a 16be 1bcc 32bc 8ebc 063d
00000270: 1005 40be 27f5 0cbe 76fe 6abd 3e6c 18bd
00000280: 2507 9dbd 8850 043e abf6 c33d ec9e 893d
00000290: eeea e93d 5bb9 ee3d 9a91 063e b653 29be
000002a0: 795f 1e3d f321 13bd 5baf 843c e334 d2bd
000002b0: 3958 1c3e 8a39 1bbe e28f 3cbe 647e 043e
000002c0: a1fe 373e b429 0ebc 1171 f0bb 5042 bfbc
000002d0: ca57 df3d f5de 8cbc e3f6 af3c be8a 4ebc
000002e0: cd3d 9fbd c96e b03d 0bfa 2cbe 5fbd ab3d
000002f0: e490 423e ab81 4cbe 38f9 d63c 5a01 703d
00000300: 5376 4cbd 6c68 efbd 7261 abbc 0b10 233b
00000310: 7f9b c7bd 866e e3bb b244 b13b f0d0 a33c
00000320: c061 50bd f51c dd3c 33eb cd3d a1b7 9ebd
00000330: de7c 57bc 7265 50be fdc2 7ebd 8376 cdbc
00000340: d73f 1abd 1c0d 8d3d 054f a63d 1388 093b
00000350: f766 ad3c 338f babd 26a8 393b 09fa 863d
00000360: f578 16bd 64fb 4d3d 1372 5b3d f57d f33d
00000370: 0296 4e3d 61e0 303d d5f1 5d3d 07df 83bc
00000380: 8ca2 0f3e 8318 01be bad3 a73d b4bd 9abd
00000390: 28a0 14be ddbb ed3d 9aea 583e 0b38 e7bd
000003a0: f54a 263e d7eb b43c 3bf4 233c 42bb 4c3d
000003b0: c034 78bc d6fd 83bc 98f7 f8bb 29ee 8e3d
000003c0: b5f1 153d 52b1 73be fb49 1a3d 57f4 413d
000003d0: 7201 70bb a952 72bc 9c5e 573d 3cfc 38bc
000003e0: f386 14bc aaf9 13be ab16 05bd f378 20bb
000003f0: 5a5e d93b bafc 113e 5a21 7e3d db1f 1e3d

actor.2.bias f4 [128]
-0.09221696 0.004295463 -0.12448726 -0.09409824 -0.11256223 -0.042413153 0.10421606 -0.26727206
-0.0386785 -0.09584753 -0.040805362 -0.042823717 -0.14171836 -0.27021468 -0.16596425 -0.15603095
-0.014806699 -0.13352714 -0.10096822 -0.079126574 0.006447442 -0.15627472 -0.337035 -0.08067257
-0.31553137 -0.20587006 0.032738015 -0.413086 -0.063256636 -0.069617584 -0.06781196 0.029344995
0.00013712316 -0.0029409681 -0.051789727 -0.25606352 0.018549386 0.085936576 -0.003165917 -0.06859456
0.008934016 -0.38232014 0.027102692 -0.012244588 0.1033683 -0.20288555 -0.081333436 -0.07158742
-0.08971427 -0.24275982 -0.036370654 -0.30222866 -0.12966593 -0.26481602 -0.12940028 0.081059344
0.007217523 -0.25331974 -0.064619996 -0.22240166 0.042067517 0.009988011 -0.058714263 -0.24384297
-0.23073067 0.01906117 0.015861517 -0.30772626 -0.09667449 -0.24060364 -0.3541771 -0.13884154
-0.09229875 -0.09722928 0.07727466 -0.29920292 -0.1257097 -0.50376254 -0.074495286 -0.3122001
-0.15143842 -0.07352046 -0.2865054 -0.062123917 -0.30394143 -0.13883524 -0.10191097 -0.26726142
-0.39401868 -0.1320266 -0.07669828 -0.16983105 0.12215227 -0.17569801 -0.19785877 0.010265819
-0.003723718 0.12291632 0.06405276 -0.07951094 0.015036491 0.07764507 -0.10600427 -0.06294781
0.06281174 -0.3138058 -0.10265714 -0.14249319 -0.0732891 -0.11371337 -0.2865861 -0.15022555
-0.14437988 -0.08604022 -0.055096105 -0.00094608724 0.0985941 -0.07515742 -0.087702245 -0.12514037
-0.122115515 -0.17184232 0.042072248 -0.022434026 -0.11907815 -0.17598182 -0.26010633 -0.059442304
00000000: 3fdc bcbd f5c0 8c3b 2df3 febd 94b6 c0bd
00000010: 0787 e6bd 6ab9 2dbd 3b6f d53d e2d7 88be
00000020: 596d 1ebd b64b c4bd 8623 27bd ec67 2fbd
00000030: 9e1e 11be 9459 8abe 88f2 29be 94c6 1fbe
00000040: cc97 72bc 57bb 08be 6dc8 cebd 1d0d a2bd
00000050: 1045 d33b 7b06 20be da8f acbe a937 a5bd
00000060: 548d a1be 9acf 52be 4c18 063d 0280 d3be
00000070: b28c 81bd aa93 8ebd ffe0 8abd ea64 f03c
00000080: b8c8 0f39 42bd 40bb 7721 54bd c21a 83be
00000090: e2f4 973c 84ff af3d 467b 4fbb 4e7b 8cbd
000000a0: fb5f 123c 77bf c3be 7706 de3c 869d 48bc
000000b0: c2b2 d33d 3bc1 4fbe 2592 a6bd 6d9c 92bd
000000c0: 1dbc b7bd 0896 78be 65f9 14bd b7bd 9abe
000000d0: 25c7 04be f795 87be 8281 04be 7102 a63d
000000e0: f980 ec3b 20b3 81be 7d57 84bd 43bd 63be
000000f0: fd4e 2c3d c1a4 233c 5e7e 70bd f9b1 79be
00000100: a944 6cbe 2c26 9c3c 03f0 813c 4c8e 9dbe
00000110: 46fd c5bd cd60 76be b356 b5be 7a2c 0ebe
00000120: 2107 bdbd 2520 c7bd 2d42 9e3d 2031 99be
00000130: 0bba 00be 95f6 00bf fc90 98bd b1d8 9fbe
00000140: ac12 1bbe e591 96bd d6b0 92be a675 7ebd
00000150: 369e 9bbe d32a 0ebe b3b6 d0bd 7dd6 88be
00000160: d1bc c9be fb31 07be fd13 9dbd 31e8 2dbe
00000170: f82a fa3d 2eea 33be 7d9b 4abe f731 283c
00000180: 9f09 74bb 8dbb fb3d 182e 833d a2d6 a2bd
00000190: 9d5b 763c 6104 9f3d c418 d9bd c8ea 80bd
000001a0: 71a3 803d 27ab a0be e83d d2bd bce9 11be
000001b0: 9818 96bd 8ee2 e8bd 6abb 92be bad4 19be
000001c0: 52d8 13be db35 b0bd 74ac 61bd d702 78ba
000001d0: b4eb c93d 22ec 99bd 3c9d b3bd cc24 00be
000001e0: b317 fabd 6ff7 2fbe f353 2c3d 90c7 b7bc
000001f0: 3fdf f3bd 9434 34be a82c 85be c679 73bd

actor.4.weight f4 [64, 128]
0.0028786364 0.042199597 0.0186438 -0.010742415 -0.052998915 0.04281748 -0.12992015 -0.02151938
0.09065201 0.03781839 -0.0427035 -0.0019650017 -0.02131107 -0.04938782 -0.13990234 0.016086321
0.05865483 0.033422355 0.0017544703 -0.047251735 0.0117052635 -0.04001793 0.25389776 0.13879427
0.050977815 0.007624775 0.009072937 0.04673908 -0.036784563 -0.005655695 0.06343352 0.023266802
0.056755103 0.04796455 -0.03259803 0.12630802 0.044520523 -0.14143918 0.11460697 0.059704166
-0.029627364 0.33584902 0.089664064 -0.01881157 -0.34239587 0.043023553 -0.09571188 -0.022215003
-0.049572024 -0.0672408 0.034513142 -0.07131988 -0.07941207 0.09688327 0.02934872 -0.08552791
0.040957622 0.012330257 -0.19141778 -0.088231094 0.03826665 0.08094458 0.10075744 0.03062751
0.13966894 0.07968588 -0.04005702 0.109967284 0.166426 0.07516988 0.057747662 0.12104124
0.103707194 0.08175757 0.0022955115 0.0026063765 -0.0006155315 0.25191942 -0.07117474 -0.052589856
0.24604566 -0.0029722527 0.16564696 -0.13435169 0.10581587 0.065352574 0.16628012 0.10143668
-0.014228019 0.08138907 -0.050147705 -0.09486302 0.01723078 0.11153459 0.07174338 0.043027278
0.048060145 -0.106134914 0.0022973015 0.053067263 0.08189199 -0.01403809 -0.13685255 0.06406891
-0.01619805 -0.04250091 0.0634854 -0.011103544 -0.029758029 0.038805194 0.029186927 -0.10519162
0.09322605 -0.040639274 -0.07435152 0.057837922 0.04967179 -0.022226918 0.03866811 0.05185599
-0.18270607 0.08696881 -0.20878758 -0.040117994 -0.024210822 -0.09091496 -0.03254846 0.05101341
-0.01399412 -0.0044842777 -0.0077065597 -0.00587247 0.008479343 0.021335203 -0.031295557 -0.055857584
0.073588595 -0.03193668 0.07379446 0.091326505 -0.029751996 -0.011028805 -0.0064280685 -0.08694252
0.006259097 -0.048172873 0.062597476 0.050356526 0.03585942 -0.029693069 -0.030011104 0.016003314
0.09408208 -0.06036759 -0.008713184 -0.070387475 0.1132604 -0.004976073 -0.0063467943 -0.03836939
-0.055578887 0.013795472 0.059001893 0.012578942 -0.03933491 0.00036949056 0.008137297 0.016389446
-0.05515132 -0.067956775 -0.026607044 0.00025786523 -0.0074328687 0.035803325 0.009276244 -0.032593932
-0.049923293 -0.031263474 -0.022866296 0.03043641 -0.05130947 0.048533764 -0.026713379 0.0063895057
0.016540527 -0.0043270816 0.030333662 -0.048754234 0.01926888 -0.09772466 0.04162651 -0.10147933
-0.08469414 -0.0071086776 -0.07719948 -0.079441994 0.021697365 0.072467916 0.059232548 0.0069796178
-0.06247797 -0.02386455 0.0436078 -0.09235981 -0.07270932 0.064354755 -0.012281455 -0.040628344
0.028779829 -0.05485918 -0.031152483 -0.010846179 -0.03757798 0.10747818 -0.019280031 0.068086825
0.095541164 0.027455073 0.05186398 0.013021953 -0.04247264 -0.08555586 0.007632432 -0.06037541
0.110151276 0.022799386 0.001603796 -0.031400383 0.05177357 -0.12870522 0.05850696 -0.019783463
0.021638354 -0.021772407 -0.039845027 -0.059958052 -0.09241168 0.12282995 -0.012637957 0.021001564
0.0045367624 0.0065158634 -0.004940283 0.012760443 0.025437621 0.048121694 -0.030312248 0.09132421
0.07188519 -0.017500514 -0.046351757 0.023133898 0.052351348 0.10824578 -0.08188636 -0.009282719
00000000: 81a7 3c3b 7cd9 2c3d e2ba 983c f400 30bc
00000010: 6415 59bd 6261 2f3d ca09 05be 6949 b0bc
00000020: c3a7 b93d 75e7 1a3d dde9 2ebd 42c7 00bb
00000030: 8e94 aebc e24a 4abd 8f42 0fbe 76c7 833c
00000040: 0c40 703d e1e5 083d 41f6 e53a 098b 41bd
00000050: 6fc7 3f3c d7e9 23bd e3fe 813e 1620 0e3e
00000060: 1dce 503d 40d9 f93b a8a6 143c 7a71 3f3d
00000070: 69ab 16bd 6953 b9bb 6fe9 813d 059a be3c
00000080: 0a78 683d 7a76 443d 8385 05bd e456 013e
00000090: 275b 363d 6fd5 10be 0fb7 ea3d 5b8c 743d
000000a0: 16b5 f2bc 67f4 ab3e cba1 b73d b91a 9abc
000000b0: 834e afbe 7739 303d 9704 c4bd 3dfc b5bc
000000c0: 090c 4bbd 8bb5 89bd a75d 0d3d 2810 92bd
000000d0: cca2 a2bd bc6a c63d ba6c f03c 4229 afbd
000000e0: 2ec3 273d d904 4a3c 0603 44be 81b2 b4bd
000000f0: 7ebd 1c3d 46c6 a53d eb59 ce3d 8be6 fa3c
00000100: 6005 0f3e 5a32 a33d d412 24bd 8736 e13d
00000110: 946b 2a3e abf2 993d d088 6c3d 78e4 f73d
00000120: 7064 d43d 8370 a73d 4b70 163b becf 2a3b
00000130: 9f5b 21ba 95fb 803e 10c4 91bd 7668 57bd
00000140: 65f3 7b3e 20ca 42bb 5b9f 293e 7d93 09be
00000150: feb5 d83d 92d7 853d 5645 2a3e 09be cf3d
00000160: a31c 69bc 50af a63d ae67 4dbd 8b47 c2bd
00000170: 9127 8d3c 3f6c e43d 31ee 923d 5f3d 303d
00000180: b7da 443d 435d d9bd 538e 163b 0f5d 593d
00000190: fdb6 a73d 0400 66bc 1323 0cbe 9036 833d
000001a0: c6b1 84bc 6f15 2ebd a204 823d a4eb 35bc
000001b0: 1cc7 f3bc 32f2 1e3d 6c19 ef3c b46e d7bd
000001c0: 4ded be3d 5e75 26bd 9c45 98bd 75e7 6c3d
000001d0: a674 4b3d 3a15 b6bc 7462 1e3d f266 543d
000001e0: 4d17 3bbe b41c b23d 69cc 55be c452 24bd
000001f0: c655 c6bc 9f31 babd 8951 05bd 70f3 503d
00000200: 9847 65bc d9f0 92bb 4f87 fcbb d96d c0bb
00000210: f1ec 0a3c 2ac7 ae3c c52f 00bd ecca 64bd
00000220: 9eb5 963d 09d0 02bd 8d21 973d 6409 bb3d
00000230: 75ba f3bc 29b2 34bc 8ca2 d2bb ec0e b2bd
00000240: 1c19 cd3b eb50 45bd 1b33 803d a542 4e3d
00000250: 54e1 123d e13e f3bc d9d9 f5bc 6219 833c
00000260: 1bae c03d 0244 77bd bec1 0ebc 4f27 90bd
00000270: 12f5 e73d 530e a3bb c5f8 cfbb 3929 1dbd
00000280: b0a6 63bd 6706 623c f8ab 713d e817 4e3c
00000290: a51d 21bd 2fb8 c139 4c52 053c 2943 863c
000002a0: 5ae6 61bd ec2c 8bbd 04f7 d9bc 1632 8739
000002b0: 6c8f f3bb 82a6 123d 63fb 173c 3781 05bd
000002c0: 5e7c 4cbd 210e 00bd 1952 bbbc c755 f93c
000002d0: e129 52bd 57cb 463d 04d6 dabc 0f5f d13b
000002e0: 0080 873c 31ca 8dbb 4d7e f83c 85b2 47bd
000002f0: c5d9 9d3c de23 c8bd 8f80 2a3d 65d4 cfbd
00000300: 1f74 adbd e9ef e8bb c31a 9ebd 7cb2 a2bd
00000310: acbe b13c 0f6a 943d d49d 723d 47b5 e43b
00000320: e6e8 7fbd 977f c3bc 189e 323d 2427 bdbd
00000330: a0e8 94bd 6dcc 833d 2838 49bc e869 26bd
00000340: adc3 eb3c 05b4 60bd 7e33 ffbc 2cb4 31bc
00000350: 5eeb 19bd 851d dc3d 28f1 9dbc 1b71 8b3d
00000360: 16ab c33d 76e9 e03c 536f 543d 085a 553c
00000370: caf7 2dbd e937 afbd 7b19 fa3b 354c 77bd
00000380: fe96 e13d c7c5 ba3c 7736 d23a b09d 00bd
00000390: 8610 543d 4dcb 03be fea4 6f3d ee10 a2bc
000003a0: eb42 b13c 0c5c b2bc 8a34 23bd 9396 75bd
000003b0: 5642 bdbd 458e fb3d 6f0f 4fbc 790b ac3c
000003c0: 1fa9 943b 0683 d53b 19e2 a1bb 2d11 513c
000003d0: 8f62 d03c 411b 453d 6451 f8bc 3008 bb3d
000003e0: 8b38 933d 3d5d 8fbc 57db 3dbd 4d83 bd3c
000003f0: 5e6e 563d f7af dd3d 09b4 a7bd 8c16 18bc

actor.4.bias f4 [64]
-0.35220262 0.0617986 -0.34123462 0.08515704 -0.041116513 -0.13652535 0.030441394 0.053080827
0.027672306 0.009336021 0.034375496 0.22286172 0.028651813 -0.072448954 -0.04061738 -0.044580285
-0.050948497 0.072590135 -0.4019904 0.062991254 0.0726018 0.015118572 -0.34147957 -0.09146994
0.020243907 -0.21601611 -0.009252031 -0.01896249 -0.41056266 -0.33850795 0.07681515 -0.0732631
0.048944104 0.11703148 -0.28685176 -0.23501533 0.025930425 -0.05094679 -0.0065193092 -0.097610116
-0.030293135 -0.12822393 -0.21139355 -0.092837065 0.07001015 -0.11483274 -0.08668164 -0.22843316
0.021231344 -0.009608411 -0.06363035 0.06274529 0.05755484 -0.024085749 0.08466765 -0.33738714
-0.16865847 -0.14331038 0.025488049 -0.01813027 -0.11629239 -0.063639544 0.077246115 -0.088842124
00000000: e753 b4be 8720 7d3d 4eb6 aebe d066 ae3d
00000010: ca69 28bd 4dcd 0bbe 3b60 f93c 486b 593d
00000020: 08b1 e23c 1cf6 183c 52cd 0c3d dd35 643e
00000030: 35b7 ea3c 1e60 94bd 695e 26bd d199 36bd
00000040: 5faf 50bd 23aa 943d b0d1 cdbe 8f01 813d
00000050: 41b0 943d e3b3 773c 69d6 aebe 9854 bbbd
00000060: 8dd6 a53c 5433 5dbe d595 17bc 3957 9bbc
00000070: 4535 d2be ea50 adbe 4351 9d3d f70a 96bd
00000080: 9d79 483d 33ae ef3d 3cde 92be dca7 70be
00000090: 0b6c d43c 95ad 50bd ee9f d5bb d0e7 c7bd
000000a0: 4f29 f8bc 224d 03be 8d77 58be 5c21 bebd
000000b0: 7b61 8f3d 6d2d ebbd 2586 b1bd 62ea 69be
000000c0: 5bed ad3c 996c 1dbc a150 82bd 9a80 803d
000000d0: a0be 6b3d 7a4f c5bc 3c66 ad3d 02be acbe
000000e0: ceb4 2cbe f5bf 12be 50cc d03c ef85 94bc
000000f0: b42a eebd 7355 82bd 3633 9e3d dcf2 b5bd

actor.6.weight f4 [6, 64]
0.0020949382 0.0008693402 -0.083181895 -0.003203377 -0.0020956632 -0.03076791 0.00605824 0.00044163966
-0.006521941 -0.0073432727 -0.016340436 0.059675593 0.0009429075 -0.00074809964 -0.008121992 -0.000830026
0.057804443 -0.0011849187 0.09059205 0.010802394 0.045601923 0.0013938777 -0.038707286 -0.06857313
-0.054709587 -0.036611743 0.000953639 -0.00036513017 -0.043989096 0.031578306 -0.0005633366 0.0024676681
0.0011056754 -0.029252704 -0.0016225572 -0.05310221 4.4735966e-06 0.05048767 0.00090734527 0.0023615996
-0.0024466135 0.027792616 -0.20579441 0.009793837 -0.002871983 -0.0067576775 -0.0006164464 -0.090644106
0.00031655232 -0.008318893 0.0046116845 0.039224043 0.018453388 -0.0030534142 -0.0041299476 0.0344554
0.05333382 0.0016763721 -0.0036317913 0.0008438673 -0.035507903 0.0020005063 -0.0045633344 -0.01648269
0.08348602 0.00078801496 0.033755857 -0.024098039 0.0055487105 0.02214286 -0.008873945 0.009443238
0.010836547 0.009839828 -0.009946314 -0.11932538 0.0033350806 -0.013980558 -0.0057569924 0.034906488
0.016349532 0.013799968 0.06948354 -0.058343317 0.02728187 0.012903033 0.07100912 -0.109351486
-0.08928966 0.10182556 -0.00250109 -0.01453365 0.1485421 0.02025962 -0.002535984 0.00842758
0.021478137 -0.028475022 0.029896718 0.015947424 0.031070558 -0.017988961 -0.034994304 -0.005491409
0.0045101997 0.023180617 -0.006054467 0.04742339 0.019950556 0.005122858 0.00064259046 0.056221984
0.007442645 0.022229606 -0.014242769 0.021620099 0.0017564995 0.005888403 -0.02215455 0.11772305
0.016411811 -0.00080879993 0.004663159 -0.012092 -0.020689396 -0.04307372 -0.01959609 -7.261192e-05
-0.079841286 -0.018085035 0.043314293 0.0015032723 -0.0074268994 0.042338412 0.01892548 -0.010608148
0.024330324 0.009753853 0.008908348 0.070889264 -0.03334596 0.011055595 -0.04494537 0.0029429656
-0.0134133175 -0.011413049 -0.025847131 -0.04976045 -0.11053691 0.00447746 -0.06209347 0.048923325
-0.0151357865 0.024537107 0.001608406 -0.0032656845 -0.00015886789 -0.037245277 0.010306145 0.062745824
-0.011222721 0.037981436 0.09909804 -0.010723014 0.018624105 0.04165121 0.01167379 -0.0042054895
-0.008517846 -0.054927874 -0.039692543 0.0038230321 -0.0076754205 -0.0025052316 0.020744162 -0.10903051
-0.017054535 0.0017002802 -0.006544298 0.0098088235 -0.05938965 -0.0026427836 0.01141538 -0.035784073
-0.06754339 0.013308682 0.039854493 -0.006455114 0.046506222 0.016929898 -0.010712098 0.009605326
-0.13026014 0.020478318 -0.06512046 0.016141145 0.012357711 -0.06572695 0.046195958 -0.026210552
0.041385245 0.043073405 0.023889055 0.14719163 -0.0041788095 0.0040545473 -0.007938684 0.009503009
-0.07602693 0.015118076 -0.050104048 -0.046285845 0.08265216 0.0020666553 -0.0053862343 -0.024944885
0.066330515 0.05878887 0.047028683 -0.036005024 -0.046536908 -0.045229506 0.044275932 0.09038965
0.011496542 0.01598709 -0.08031747 0.0055095963 0.031698834 -0.08382064 0.01945282 0.02300647
0.03567731 0.07200893 -0.043447692 0.013942083 0.018059524 0.027140882 -0.013035494 0.03929519
-0.005574069 0.050705712 -0.032480057 0.0014730488 0.074707486 -0.051179122 0.046738606 0.04258309
0.047754675 -0.011161243 0.01778734 0.0044677653 -0.0347364 -0.0005627149 -0.0044820253 0.021085367
00000000: 3b4b 093b 6fe4 633a 455b aabd bfef 51bb
00000010: 6557 09bb fc0c fcbc 3384 c63b df8b e739
00000020: 02b6 d5bb d69f f0bb 61dc 85bc 656e 743d
00000030: 742d 773a 1e1c 44ba 1b12 05bc 1a96 59ba
00000040: 5ac4 6c3d 464f 9bba 5388 b93d 86fc 303c
00000050: 15c9 3a3d c6b2 b63a 888b 1ebd 1270 8cbd
00000060: 2917 60bd 32f6 15bd a1fd 793a f16e bfb9
00000070: e92d 34bd 4158 013d e1ac 13ba 9ab8 213b
00000080: 4fec 903a 5ea3 efbc fcab d4ba b481 59bd
00000090: e71b 9636 29cc 4e3d e9da 6d3a 11c5 1a3b
000000a0: 5d57 20bb 57ad e33c c5bb 52be 5476 203c
000000b0: e137 3cbb 826f ddbb 0599 21ba 9ea3 b9bd
000000c0: eff6 a539 f74b 08bc 9d1d 973b 64a9 203d
000000d0: 8f2b 973c ca1b 48bb 8354 87bb 1b21 0d3d
000000e0: 9074 5a3d b7b9 db3a 5903 6ebb fa36 5d3a
000000f0: bc70 11bd ed1a 033b 0688 95bb b506 87bc
00000100: b8fa aa3d ca92 4e3a 9543 0a3d 4069 c5bc
00000110: f5d1 b53b f164 b53c 0664 11bc d0b7 1a3c
00000120: c68b 313c 3b37 213c ddf5 22bc dd60 f4bd
00000130: 5e91 5a3b b60e 65bc 27a5 bcbb 1bfa 0e3d
00000140: 74ef 853c 4319 623c 634d 8e3d 67f9 6ebd
00000150: 3a7e df3c 3e67 533c 3b6d 913d acf3 dfbd
00000160: 7fdd b6bd eb89 d03d 54e9 23bb 8c1e 6ebc
00000170: 6c1b 183e 81f7 a53c c032 26bb d513 0a3c
00000180: ebf2 af3c 7344 e9bc f6e9 f43c 2ca4 823c
00000190: af87 fe3c 965d 93bc 3056 0fbd 47f1 b3bb
000001a0: 4cca 933b 47e5 bd3c 8d64 c6bb 073f 423d
000001b0: 596f a33c a6dd a73b 8473 283a 0649 663d
000001c0: 6ee1 f33b dd1a b63c 815a 69bc a21c b13c
000001d0: 583a e63a 81f3 c03b 757d b5bc c818 f13d
000001e0: 1072 863c a505 54ba 6acd 983b 861d 46bc
000001f0: cf7c a9bc 126e 30bd fb87 a0bc 3a47 98b8
00000200: d483 a3bd 1127 94bc 546a 313d 7309 c53a
00000210: 595d f3bb 0b6b 2d3d 9c09 9b3c cccd 2dbc
00000220: 6350 c73c a0ce 1f3c 52f4 113c 642e 913d
00000230: c695 08bd 8722 353c a318 38bd c5de 403b
00000240: 88c3 5bbc ccfd 3abc 5dbd d3bc 9dd1 4bbd
00000250: 2d61 e2bd a8b7 923b b955 7ebd d363 483d
00000260: 17fc 77bc 0b02 c93c 26d1 d23a 1805 56bb
00000270: c695 26b9 818e 18bd 1bdb 283c e280 803d
00000280: 81df 37bc 6c92 1b3d eaf3 ca3d 95af 2fbc
00000290: 9491 983c 769a 2a3d 6d43 3f3c 34ce 89bb
000002a0: 708e 0bbc 0dfc 60bd a694 22bd d68b 7a3b
000002b0: 1882 fbbb d02e 24bb a9ef a93c 634b dfbd
000002c0: f4b5 8bbc f0db de3a 8d71 d6bb 30b5 203c
000002d0: 9042 73bd 8d32 2dbb 9307 3b3c 5292 12bd
000002e0: 3054 8abd a80c 5a3c 773e 233d 6c85 d3bb
000002f0: 4f7d 3e3d 92b0 8a3c cc81 2fbc a85f 1d3c
00000300: ea62 05be 25c2 a73c e05d 85bd 6f3a 843c
00000310: ff77 4a3c da9b 86bd f937 3d3d 83b7 d6bc
00000320: 9383 293d bd6d 303d fbb2 c33c 67b9 163e
00000330: 65ee 88bb 02dc 843b 4111 02bc 82b2 1b3c
00000340: 02b4 9bbd ceb1 773c e739 4dbd 3a96 3dbd
00000350: 8945 a93d b970 073b 027f b0bb 3759 ccbc
00000360: 4bd8 873d 99cc 703d 26a1 403d 017a 13bd
00000370: 7c9d 3ebd 9342 39bd ae5a 353d 351e b93d
00000380: fe5b 3c3c 5cf7 823c 7c7d a4bd d889 b43b
00000390: a3d6 013d 28aa abbd 855b 9f3c 1178 bc3c
000003a0: 5f22 123d 6b79 933d 35f6 31bd 566d 643c
000003b0: 91f1 933c 8e56 de3c d392 55bc fef3 203d
000003c0: aea6 b6bb cbb0 4f3d cf09 05bd 5113 c13a
000003d0: 3d00 993d 33a1 51bd fb70 3f3d 9b6b 2e3d
000003e0: 689a 433d a5dd 36bc c1b6 913c 5566 923b
000003f0: c147 0ebd 2883 13ba f4dd 92bb 38bb ac3c

actor.6.bias f4 [6]
0.0848823 -0.24739788 0.10716994 0.19069102 -0.06336814 0.13582279
00000000: c5d6 ad3d df55 7dbe ea7b db3d 8244 433e
00000010: 28c7 81bd 2115 0b3e

critic.0.weight f4 [128, 28]
-0.052941084 0.438659 -0.08783963 -0.00023613569 -0.17705412 -0.065989755 0.36892554 -0.47187865
-0.16047512 0.25018123 0.10337085 -0.039129358 -0.15932101 0.05225906 0.11610972 -0.13968742
0.102645986 -0.018820595 -0.09530718 -0.6002304 0.26676044 -0.12443051 0.06860383 0.014274257
-0.060405042 -0.0129940165 -0.003660458 -0.108695365 0.17102829 0.02316209 -0.120665155 0.08968268
-0.024777032 0.06026279 -0.015865486 -0.035287242 0.049848676 -0.020334918 -0.05588954 -0.04268068
-0.024270374 -0.101780936 -0.13703169 0.016475173 -0.08817288 0.01819908 -0.014772946 0.5145696
-2.2499027 0.46854714 -0.012518741 -0.13471915 0.11883477 0.092931114 0.077645145 -0.019042637
-0.05091624 -0.036216337 -0.022593265 0.08088695 -0.058971766 -0.09791897 0.06902881 -0.06933557
0.11762127 -0.13784002 0.092268296 -0.0099832835 -0.0970452 0.03191855 0.021972643 0.23389289
-0.075449675 0.073231995 -0.08485154 -0.3027329 -0.031092495 0.43553427 0.100540236 -0.12457964
-0.11334558 0.050270554 -0.11082385 -0.021648316 -0.14144087 0.028503291 -0.08634487 -0.10868761
-0.0200526 0.026121812 0.0128690265 0.04545188 0.15408492 -0.12723322 -0.08184522 -0.060602065
0.035355844 -0.03978617 0.05290543 0.18778335 0.089879684 -0.030283086 -0.06638885 -0.13075958
-0.0129013825 0.41246226 0.01037769 -0.11467565 -0.16053058 0.15564051 0.054096382 0.22499113
-0.27008823 -0.080192335 -0.07794844 0.016538857 -0.031043785 0.108411014 -0.0523273 0.0017904064
-0.1027074 0.04010856 -0.04682109 0.027853867 0.10534034 0.028283445 -0.17463513 0.10143445
0.0032444329 -0.036062825 0.08939132 -0.12546547 1.2947288 0.35183334 0.042434808 -0.0795472
0.038830765 -0.0074494933 0.019494185 -0.031097556 0.21215253 -0.13887464 -0.0579575 0.010828126
-0.06833963 -0.027865967 -0.15741852 0.0317565 0.023876568 0.009659648 0.09837961 0.0967169
0.09781287 -0.28736362 -0.18740833 -0.14648321 -0.1229328 0.13568506 0.18484592 0.76326406
0.16414656 0.10768985 -0.06285614 -0.026791612 0.039736204 0.01993801 -0.022516558 0.016833534
-0.16727908 -0.15283842 -0.0992129 -0.083036326 -0.008401348 -0.04664729 0.06427052 0.08421619
0.0047185635 -0.24217671 0.095652156 -0.026028138 -0.050993703 0.25486755 0.0023607686 -0.080458105
-0.05044036 -0.11624325 -0.00848553 -0.27857536 1.2734644 0.26281196 -0.11322908 0.037258185
-0.0014739705 0.046673637 -0.18027481 -0.19115093 0.06800133 -0.08507693 -0.20176357 -0.00197133
0.02466502 -0.0240466 -0.13540478 0.21655546 0.049622342 -0.29466018 -0.030885795 0.15687604
0.099364094 0.16065277 0.06199962 0.05299011 -0.13696143 -0.10809888 0.23024201 -0.09856809
1.0155667 0.09660292 -0.011597424 -0.05354421 0.07255405 0.030441696 0.054338112 -0.040148195
-0.2558685 -0.11853749 -0.13663259 -0.1352233 0.07797367 0.12412956 0.16541676 0.26337463
-0.18629588 0.17971213 0.23029779 0.22428231 -0.25307024 0.15533847 -0.164586 -0.080341384
-0.10751542 -0.072989725 0.1003252 -0.50628954 0.9376945 0.090447105 -0.1273046 0.07769435
-0.008516322 -0.11460657 -0.04679433 -0.0880757 0.26205945 -0.11838508 0.07909069 0.082501724
00000000: c0d8 58bd ea97 e03e 44e5 b3bd 319b 77b9
00000010: ad4d 35be a325 87bd cfe3 bc3e 149a f1be
00000020: 9753 24be c117 803e 19b4 d33d 1b46 20bd
00000030: 0c25 23be 990d 563d efca ed3d 380a 0fbe
00000040: 0f38 d23d a62d 9abc 6930 c3bd b3a8 19bf
00000050: d394 883e 6cd5 febd 2a80 8c3d 93de 693c
00000060: 476b 77bd dbe4 54bc 4be4 6fbb ad9b debd
00000070: 0a22 2f3e 6cbe bd3c 4b1f f7bd 8eab b73d
00000080: 34f9 cabc 1ed6 763d 56f8 81bc 5b89 10bd
00000090: 202e 4c3d 6a95 a6bc 6eec 64bd f0d1 2ebd
000000a0: aad2 c6bc 8672 d0bd 0952 0cbe f1f6 863c
000000b0: fc93 b4bd 3d16 953c 3a0a 72bc d5ba 033f
000000c0: 68fe 0fc0 69e5 ef3e 681b 4dbc d1f3 09be
000000d0: a55f f33d ab52 be3d 6b04 9f3d 4eff 9bbc
000000e0: 8c8d 50bd 9557 14bd 8315 b9bc 0fa8 a53d
000000f0: 618c 71bd be89 c8bd fa5e 8d3d cfff 8dbd
00000100: 6ce3 f03d ef25 0dbe 29f7 bc3d ed90 23bc
00000110: a2bf c6bd 07bd 023d f9ff b33c 9e81 6f3e
00000120: 5c85 9abd a8fa 953d a5c6 adbd cfff 9abe
00000130: b0b5 febc 59fe de3e 0ae8 cd3d 9c23 ffbd
00000140: ba21 e8bd 7fe8 4d3d 9df7 e2bd cf57 b1bc
00000150: e0d5 10be bc7f e93c 94d5 b0bd 9c97 debd
00000160: 5a45 a4bc 69fd d53c 9cd8 523c c02b 3a3d
00000170: 70c8 1d3e 6d49 02be 779e a7bd df39 78bd
00000180: 4ad1 103d d3f6 22bd 5db3 583d 474a 403e
00000190: d712 b83d 3c14 f8bc e1f6 87bd d7e5 05be
000001a0: 5260 53bc 412e d33e 3007 2a3c 11db eabd
000001b0: 2162 24be 3a60 1f3e 2b94 5d3d 1364 663e
000001c0: 0149 8abe e13b a4bd 6fa3 9fbd 7f7c 873c
000001d0: 894f febc 9806 de3d 2755 56bd 12ac ea3a
000001e0: 4258 d2bd e048 243d 79c7 3fbd cb2d e43c
000001f0: adbc d73d afb2 e73c 8dd3 32be ddbc cf3d
00000200: 8da0 543b 9db6 13bd cc12 b73d 057a 00be
00000210: acb9 a53f 8023 b43e 1fd0 2d3d a4e9 a2bd
00000220: 020d 1f3d e11a f4bb 45b2 9f3c 4dc0 febc
00000230: 833e 593e 2735 0ebe d864 6dbd 7468 313c
00000240: a6f5 8bbd 2b47 e4bc 5232 21be 1b13 023d
00000250: cb98 c33c 8043 1e3c 407b c93d 8313 c63d
00000260: 1d52 c83d 5321 93be f8e7 3fbe b2ff 15be
00000270: 31c4 fbbd 06f1 0a3e 4048 3d3e 4665 433f
00000280: 0916 283e 7f8c dc3d b8ba 80bd 157a dbbc
00000290: 6ec2 223d 0a55 a33c a574 b8bc 7be6 893c
000002a0: 354b 2bbe ad81 1cbe 2230 cbbd f30e aabd
000002b0: cfa5 09bc 3b11 3fbd 43a0 833d 8a79 ac3d
000002c0: 2e9e 9a3b 2cfd 77be 47e5 c33d f638 d5bc
000002d0: c6de 50bd 007e 823e 20b7 1a3b 38c7 a4bd
000002e0: 8d9a 4ebd f110 eebd e406 0bbc 6ea1 8ebe
000002f0: e200 a33f 4a8f 863e a6e4 e7bd 0a9c 183d
00000300: 3e32 c1ba db2c 3f3d f699 38be 12bd 43be
00000310: 4844 8b3d d03c aebd 1c9b 4ebe 6e31 01bb
00000320: 4c0e ca3c 60fd c4bc 8da7 0abe b7c0 5d3e
00000330: cc40 4b3d b3dd 96be 3504 fdbc 1da4 203e
00000340: 677f cb3d 2982 243e 50f3 7d3d 280c 593d
00000350: 9e3f 0cbe f262 ddbd 90c4 6b3e 11de c9bd
00000360: 17fe 813f c0d7 c53d 1f03 3ebc 2c51 5bbd
00000370: 3897 943d dd60 f93c a491 5e3d 6f72 24bd
00000380: 3201 83be c9c3 f2bd 6ae9 0bbe fa77 0abe
00000390: a9b0 9f3d a437 fe3d 0363 293e 0ad9 863e
000003a0: 59c4 3ebe 7506 383e 2fd3 6b3e 43aa 653e
000003b0: 6c92 81be 0c11 1f3e 3b89 28be 068a a4bd
000003c0: 0b31 dcbd a37b 95bd 4c77 cd3d 319c 01bf
000003d0: bf0c 703f 553c b93d 235c 02be 371e 9f3d
000003e0: 0b88 0bbc d9b6 eabd 69ab 3fbd 0861 b4bd
000003f0: a82c 863e e073 f2bd 4dfa a13d aaf6 a83d

critic.0.bias f4 [128]
-0.104349814 -0.20463203 -0.2282207 -0.29314765 -0.16537663 -0.31409293 0.05826856 0.02620025
0.050057545 0.29596755 -0.24473897 0.06968799 0.1973817 -0.22478738 0.22480017 0.37466797
-0.3058359 0.038499925 0.025346922 0.005969289 0.21735156 0.22377026 0.25079873 -0.20034996
0.046616133 -0.1949316 0.027315855 -0.22007951 -0.02948665 0.06637041 0.20005669 -0.34537157
0.10841017 -0.19919167 0.2815917 -0.07913802 0.30695477 -0.003598885 0.3078653 -0.08685962
-0.029754143 -0.095690176 -0.058322646 -0.08881337 0.2502123 -0.07126435 0.188691 -0.15392685
0.29065204 -0.012191132 0.28695938 0.04072547 0.16665556 -0.25146416 -0.067659505 0.20160222
-0.2315784 0.27799803 -0.096016355 -0.18205543 0.2472554 -0.12219017 -0.110711515 0.07759968
0.07995902 0.058168825 -0.22017872 -0.07290618 0.33288476 -0.27663472 -0.16994639 0.16882455
0.113642775 0.15604194 0.21582022 0.1547061 -0.3065161 0.14439584 0.10506959 0.08791659
0.3531034 -0.24385554 0.28181738 -0.2324461 0.22711179 -0.07021122 -0.17113307 0.13415527
0.076131225 -0.25183293 0.091176026 -0.18082497 -0.30251196 -0.2069298 -0.19742507 -0.097358726
0.2570001 0.064528055 -0.1891153 0.30355066 -0.0282497 -0.13888186 0.1971582 -0.017180385
0.19499151 -0.08000177 0.34041095 -0.009699499 0.05437365 -0.053733647 0.3459812 0.21837616
0.12452167 -0.31304705 -0.19080883 -0.33212075 0.28447112 -0.1746485 -0.30110964 0.09836032
0.018494304 -0.19109169 -0.2574556 -0.14311135 -0.27520362 0.21165536 -0.31142467 0.019530108
00000000: 5bb5 d5bd 0f8b 51be b0b2 69be 7317 96be
00000010: 7e58 29be cad0 a0be 03ab 6e3d e8a1 d63c
00000020: 2409 4d3d 0f89 973e da9c 7abe 94b8 8e3d
00000030: 6e1e 4a3e aa2e 66be 0432 663e 7bd4 bf3e
00000040: 8696 9cbe 19b2 1d3d 59a4 cf3c 079a c33b
00000050: 6891 5e3e 0824 653e b168 803e 8a28 4dbe
00000060: 8ff0 3e3d 269c 47be 80c5 df3c 865c 61be
00000070: fd8d f1bc 36ed 873d a9db 4c3e 8bd4 b0be
00000080: 2706 de3d e7f8 4bbe ca2c 903e 1d13 a2bd
00000090: 2d29 9d3e 45db 6bbb 85a0 9d3e 75e3 b1bd
000000a0: f6be f3bc 36f9 c3bd bae3 6ebd c9e3 b5bd
000000b0: d41b 803e 0bf3 91bd 3738 413e 009f 1dbe
000000c0: 58d0 943e 50bd 47bc 57ec 923e c0cf 263d
000000d0: c1a7 2a3e e9bf 80be 1191 8abd d070 4e3e
000000e0: e322 6dbe c255 8e3e 39a4 c4bd bd6c 3abe
000000f0: 8530 7d3e d73e fabd b8bc e2bd 95ec 9e3d
00000100: 8ec1 a33d 6f42 6e3d 8876 61be d64f 95bd
00000110: df6f aa3e 11a3 8dbe 6d06 2ebe 58e0 2c3e
00000120: 8bbd e83d 75c9 1f3e faff 5c3e 476b 1e3e
00000130: aeef 9cbe 81dc 133e ba2e d73d 9d0d b43d
00000140: f8c9 b43e 44b5 79be 5e4a 903e 5a06 6ebe
00000150: fe8f 683e e6ca 8fbd 823d 2fbe 0060 093e
00000160: b0ea 9b3d 3ff0 80be 7fba ba3d 2e2a 39be
00000170: d9e2 9abe 68e5 53be cc29 4abe 0364 c7bd
00000180: 8495 833e 4927 843d 71a7 41be fe6a 9b3e
00000190: ea6b e7bc 0c37 0ebe d7e3 493e e1bd 8cbc
000001a0: dbab 473e f8d7 a3bd 584a ae3e a6ea 1ebc
000001b0: e8b6 5e3d d017 5cbd 7324 b13e 009e 5f3e
000001c0: 3805 ff3d b447 a0be 6463 43be bb0b aabe
000001d0: 33a6 913e 0ed7 32be 0b2b 9abe 2371 c93d
000001e0: 5e81 973c 8aad 43be 38d1 83be c88b 12be
000001f0: 7de7 8cbe 2fbc 583e 0e73 9fbe 9bfd 9f3c

critic.2.weight f4 [128, 128]
0.09005777 0.019124173 0.0937471 0.11560924 0.124216326 -0.06952893 -0.0471834 -0.09769115
0.08650379 0.108671956 0.06701683 0.07768166 -0.10605845 0.24842137 0.089881375 -0.105528004
0.12460503 -0.18368529 0.009697073 -0.08807041 -0.10352824 -0.11989224 0.14356707 0.25738966
0.17436099 0.22107548 -0.08090808 0.05726375 -0.2490915 0.013204876 -0.16198604 0.3190794
0.23182252 0.09281155 -0.064092934 -0.038305026 -0.09563034 0.12860695 0.20213601 0.123682365
-0.04970594 0.06130197 -0.06531069 0.12464511 -0.10913257 -0.26484755 -0.1421342 0.0447456
0.04058642 0.03479524 -0.25879332 0.13821448 0.07714361 0.2008133 -0.0579393 0.025452908
-0.042548537 -0.11575244 -0.08741467 0.20328726 -0.20939502 0.072698385 -0.05016409 0.08210323
0.03818708 0.10869563 0.13401258 -0.0055527934 -0.16864033 0.19725405 0.023776805 -0.08448674
0.15803704 -0.00016029475 -0.02109458 -0.17765853 0.15392555 0.21573663 -0.054339543 -0.030968623
-0.14629024 0.22449924 -0.09431137 -0.14748839 0.075308636 -0.25456858 -0.02517753 0.043443114
0.026052037 0.020922258 -0.17813595 -0.028611848 -0.010638409 0.18862623 -0.113691024 0.1484426
-0.09571494 -0.025645945 -0.05982041 -0.063406006 -0.19149016 -0.026031654 -0.13261686 0.0309509
0.067247145 0.16032499 0.060199223 0.14872043 0.034317728 0.028161976 -0.18102206 0.39563102
-0.20339754 0.1290146 0.19006059 0.10346462 0.122554146 0.2020842 0.13365781 0.20191193
-0.1368689 -0.06156959 -0.06854688 0.27519292 0.1757218 -0.028696096 0.027726674 0.16077307
0.14089686 0.10443598 0.22408201 0.120031156 0.136708 0.111618064 0.021475373 -0.06216357
0.17649016 -0.108325325 0.20485698 -0.038288023 -0.040777285 0.10867072 0.13884102 -0.24421525
0.5786219 0.0020848222 -0.003800935 -0.11411052 0.08865792 -0.051059958 -0.052958705 0.13081287
-0.016452048 0.27393717 -0.07194351 0.22973959 -0.048368324 -0.08904077 -0.008557786 0.4418983
0.021854488 0.24447235 -0.08616136 0.082070164 0.022274554 -0.09376747 -0.07405758 0.06430776
-0.25494948 0.061647523 0.10239994 0.15220682 -0.16465066 -0.022549845 -0.05675904 0.16692391
0.024155058 0.02221928 -0.06655534 -0.13927263 -0.17382096 0.34946412 0.13346116 0.02127733
-0.0023873425 0.019286344 0.2393504 -0.045019586 0.05564283 0.046611074 0.04671739 0.12265085
-0.09685244 0.09911772 0.22495362 -0.10436953 -0.12036982 0.21297339 0.1830375 -0.043492492
0.09725464 0.007579112 -0.070608646 0.04475573 -0.05391243 -0.10112493 0.037970807 0.09103631
-0.106202185 -0.06075078 -0.23817836 0.16697389 -0.048550848 0.07541643 0.13287462 0.034791823
-0.24779318 0.26567256 0.17572469 0.19687584 0.033042926 0.16438879 -0.15096833 0.13283834
-0.32119918 0.0218892 -0.08662669 -0.08328387 0.23233336 0.43973887 0.020526182 -0.038769465
-0.11027364 -0.039953083 -0.23186968 -0.15999083 0.07124958 -0.005966284 -0.20819335 -0.30290478
-0.025856076 0.19631661 0.13269906 0.22057107 -0.22392617 0.09079785 0.15905666 0.15402229
-0.021668643 0.23372126 0.21855117 0.16639748 0.31837523 0.017136794 0.250589 -0.042387232
00000000: 3570 b83d 4caa 9c3c 7bfe bf3d 8ac4 ec3d
00000010: 2165 fe3d 2f65 8ebd 6143 41bd 4c12 c8bd
00000020: e628 b13d 678f de3d 1f40 893d 9017 9f3d
00000030: 2c35 d9bd 2c62 7e3e ba13 b83d 111f d8bd
00000040: ec30 ff3d ff17 3cbe 79e0 1e3c 425e b4bd
00000050: 9d06 d4bd 108a f5bd 3f03 133e 94c8 833e
00000060: b08b 323e 9c61 623e 23b3 a5bd 658d 6a3d
00000070: d811 7fbe 4459 583c abdf 25be 605e a33e
00000080: e262 6d3e fb13 be3d 2843 83bd bbe5 1cbd
00000090: d7d9 c3bd 8ab1 033e befc 4e3e 2e4d fd3d
000000a0: 7598 4bbd c617 7b3d 9cc1 85bd ef45 ff3d
000000b0: e680 dfbd 199a 87be a18b 11be 2a47 373d
000000c0: f23d 263d 7485 0e3d 8f80 84be 1988 0d3e
000000d0: 78fd 9d3d 00a2 4d3e c251 6dbd 9e82 d03c
000000e0: 6047 2ebd 9e0f edbd 7606 b3bd 892a 503e
000000f0: a66b 56be e4e2 943d dc78 4dbd bd25 a83d
00000100: 0e6a 1c3d d19b de3d 983a 093e 35f4 b5bb
00000110: 0db0 2cbe f7fc 493e 93c7 c23c 6207 adbd
00000120: 76d4 213e cb14 28b9 8ace acbc 1eec 35be
00000130: a99e 1d3e 10ea 5c3e 2493 5ebd e9b1 fdbc
00000140: 1ccd 15be 21e3 653e 5226 c1bd 3207 17be
00000150: 6a3b 9a3d d056 82be 1b41 cebc 68f1 313d
00000160: 156b d53c 2865 ab3c 4569 36be 6563 eabc
00000170: b94c 2ebc 3c27 413e d7d6 e8bd 5601 183e
00000180: 3206 c4bd 7217 d2bc 3f06 75bd 02db 81bd
00000190: ff15 44be 5640 d5bc b7cc 07be be8c fd3c
000001a0: dfb8 893d 3c2c 243e 7693 763d 2b4a 183e
000001b0: bf90 0c3d f2b3 e63c d95d 39be 2690 ca3e
000001c0: 7247 50be 671c 043e 3e9f 423e 42e5 d33d
000001d0: abfd fa3d 29ef 4e3e 98dd 083e 00c2 4e3e
000001e0: 5c27 0cbe 6530 7cbd 4e62 8cbd 16e6 8c3e
000001f0: 6af0 333e 1314 ebbc 0d23 e33c b2a1 243e
00000200: 4447 103e 88e2 d53d c175 653e e5d2 f53d
00000210: 2ffd 0b3e 0398 e43d 1fed af3c 3a9f 7ebd
00000220: d6b9 343e abd9 ddbd 07c6 513e e7d3 1cbd
00000230: 1506 27bd c18e de3d 572c 0e3e 9013 7abe
00000240: 9120 143f 83a1 083b 1c19 79bb c7b2 e9bd
00000250: 4992 b53d 3f24 51bd 3aeb 58bd cff3 053e
00000260: 72c6 86bc 7e41 8c3e 1e57 93bd db40 6b3e
00000270: dd1d 46bd 025b b6bd f535 0cbc 7e40 e23e
00000280: 2f08 b33c f656 7a3e 5e75 b0bd 6714 a83d
00000290: 2079 b63c 2909 c0bd 80ab 97bd c9b3 833d
000002a0: bd88 82be 1d82 7c3d 0fb7 d13d 1bdc 1b3e
000002b0: 2f9a 28be 74ba b8bc 2b7c 68bd 1aee 2a3e
000002c0: d4e0 c53c 3505 b63c 2b4e 88bd 7c9d 0ebe
000002d0: 1ffe 31be f6ec b23e 0baa 083e cc4d ae3c
000002e0: f674 1cbb 65fe 9d3c 4518 753e 7566 38bd
000002f0: bce9 633d 41eb 3e3d bc5a 3f3d 5e30 fb3d
00000300: 925a c6bd 3bfe ca3d 3e5a 663e b1bf d5bd
00000310: 7484 f6bd b215 5a3e 2f6e 3b3e 2f25 32bd
00000320: 712d c73d 335a f83b 449b 90bd c951 373d
00000330: 48d3 5cbd 961a cfbd 4787 1b3d 3f71 ba3d
00000340: 8880 d9bd cfd5 78bd 07e5 73be 34fb 2a3e
00000350: 41dd 46bd ee73 9a3d 4910 083e df81 0e3d
00000360: 7fbd 7dbe 3c06 883e 2cf1 333e d299 493e
00000370: 0558 073d 8955 283e 7197 1abe c606 083e
00000380: 3874 a4be fb50 b33c 5669 b1bd bc90 aabd
00000390: cce8 6d3e 7425 e13e 8626 a83c bbcc 1ebd
000003a0: 25d7 e1bd d8a5 23bd 3f6f 6dbe a3d4 23be
000003b0: 4deb 913d d180 c3bb a330 55be 5616 9bbe
000003c0: 1fd0 d3bc 3907 493e 43e2 073e 62dd 613e
000003d0: e74c 65be 39f4 b93d c0df 223e 05b8 1d3e
000003e0: 7082 b1bc a054 6f3e e1cb 5f3e 1a64 2a3e
000003f0: 1402 a33e 7662 8c3c 344d 803e 3c9e 2dbd
