python/utils/reach_ur10/policy.onnx (onnx, 25768 bytes, 6 tensors)

actor.0.weight f4 [64, 25]
0	0x3ed340e0	0.41260433
1	0x3e3479e4	0.17624623
2	0x3f46c0c7	0.77637905
3	0x3d851e73	0.06499948
4	0x3e6ad029	0.2293097
5	0xbe94f793	-0.29095134
6	0xbdaaa7a3	-0.083327554
7	0x3ec5e1b3	0.38648757
8	0x3cb0e44e	0.02159324
9	0x3c82b219	0.015954064
10	0x3d6b95d3	0.05751593
11	0x3c59b97f	0.013288855
12	0x3f0f81f5	0.56057674
13	0x3d25f03f	0.04051232
14	0x3f503f47	0.81346554
15	0xbe25d856	-0.16195807
16	0x3e534749	0.20632662
17	0xbdd54fd4	-0.10415617
18	0xbe1502a9	-0.14551796
19	0x3dc82e79	0.09774489
20	0xbe0d72ee	-0.13813373
21	0xbd5c0db6	-0.053724013
22	0xbdaae050	-0.083435655
23	0x3dcf7348	0.1012941
24	0xbd871ebd	-0.0659766
25	0x3e1c50f3	0.15265255
26	0xbea354b9	-0.31900576
27	0x3e8cabc9	0.27474812
28	0x3d9a662c	0.07539019
29	0xbed12e5a	-0.40855676
30	0x3e790b3c	0.24320692
31	0xbe483d54	-0.19554645
32	0x3db10eeb	0.086454235
33	0x3d2b4555	0.041814167
34	0x3d2b90cf	0.041886147
35	0x3cd6e994	0.026234426
36	0x3d14a476	0.036289655
37	0x3ee1b196	0.440808
38	0xbfb4f155	-1.4136149
39	0xbf6139ff	-0.8797912
40	0x3ecda5af	0.4016547
41	0xbe73b8b7	-0.23800932
42	0x3edd3ad9	0.4320896
43	0x3eb98423	0.36233625
44	0x3cb4f95f	0.022091566
45	0x3c595376	0.013264528
46	0x3db10b16	0.086446926
47	0x3db29759	0.087202735
48	0xbd0983f2	-0.0335731
49	0xbdfacf7a	-0.12246604
50	0xbf101da1	-0.5629521
51	0x3f5212b6	0.820598
52	0x3e2aa673	0.16665058
53	0x3e5b7344	0.21430689
54	0x3ba8b2dc	0.005148275
55	0x3db8500a	0.08999641
56	0xbcb33ea1	-0.02188045
57	0xbcba6187	-0.022751583
58	0x3d8316bb	0.0640082
59	0xbd1629da	-0.036661007
60	0x3d0efc58	0.034908623
61	0xbb93a910	-0.004506238
62	0x3dd1e96d	0.102496006
63	0xbc3e0a7e	-0.011599181
64	0x3f5f3ca6	0.8720192
65	0xbe0ca2e9	-0.1373402
66	0xbe6cb957	-0.23117577
67	0xbe5b5ab6	-0.21421322
68	0x3e8e3824	0.27777207
69	0xbc3a423a	-0.011368329
70	0x3e92afbb	0.28649697
71	0x3e170a0e	0.1474993
72	0x3e252484	0.16127211
73	0xbe35a4de	-0.17738673
74	0xbda26050	-0.079285264
75	0xbf293001	-0.66088873
76	0xbe13b086	-0.14422807
77	0x3e3e4515	0.1858104
78	0xbcf65156	-0.03006808
79	0x3e96f84f	0.2948632
80	0x3cc93bf3	0.024564719
81	0x3bbdc48b	0.005791252
82	0x3d9be2dd	0.0761163
83	0x3c11350a	0.008862743
84	0x3c939598	0.018015668
85	0xbba18460	-0.0049291104
86	0x3c5f733b	0.013638313
87	0xbf7df299	-0.991983
88	0x403e1929	2.9702857
89	0x3e29eac3	0.1659346
90	0xbea323e4	-0.3186332
91	0xbef1aaf0	-0.47200727
92	0xbe7780bd	-0.24170204
93	0x3f0e95fb	0.556976
94	0x3c59b148	0.013286896
95	0xbdb29ad5	-0.08720938
96	0x3e528662	0.20559075
97	0xbdefde65	-0.1171234
98	0xbd31f2ee	-0.043444566
99	0xbd148d32	-0.036267467
100	0xbd86682f	-0.0656284
101	0xbe60a795	-0.21938927
102	0xbd4798e8	-0.048729807
103	0xbe9ba76e	-0.30401176
104	0x3f22b9f0	0.6356497
105	0xbe3fa920	-0.1871686
106	0xbe6431f2	-0.22284678
107	0x3d00d31e	0.031451337
108	0x3b306fa0	0.0026922002
109	0xbc3f77d3	-0.011686283
110	0x3dd88dc4	0.10573915
111	0x3c7c976a	0.015416959
112	0xbf309ad1	-0.6898623
113	0x3f96cdf9	1.1781608
114	0xbf187610	-0.5955515
115	0x3e0be205	0.13660438
116	0x3df51c39	0.11968274
117	0x3cdec10d	0.027191663
118	0xbe32c5e8	-0.17458308
119	0xbcd55c73	-0.02604506
120	0x3d8f4b9e	0.06996845
121	0xbd8eaefd	-0.0696697
122	0x3d81224e	0.06305371
123	0xbdb2cb5d	-0.08730195
124	0xbd5a1df5	-0.053251226
125	0xbe57eaa5	-0.21085604
126	0xbe151136	-0.14557347
127	0xbe1482a1	-0.14502956
128	0x3e92e701	0.28691867
129	0x3e5085dc	0.20363563
130	0x3d570579	0.052495454
131	0xbd1dee99	-0.038557623
132	0xbdfdeeee	-0.12399088
133	0x3df913fd	0.121620156
134	0xbda18152	-0.07885994
135	0xbe055423	-0.13020377
136	0x3b5f1fe5	0.003404611
137	0xbf51985b	-0.818731
138	0x3f2ab55f	0.66683
139	0xbe452896	-0.19253764
140	0xbe8414b6	-0.2579705
141	0x3d5aa20a	0.05337719
142	0xbe3fd84f	-0.18734859
143	0xbeba8836	-0.36432046
144	0xbd0d2a13	-0.034463953
145	0x3e367308	0.17817318
146	0xbdfd77bd	-0.12376354
147	0x3e008012	0.12548855
148	0x3e36fc08	0.1786958
149	0xbd9c5881	-0.07634068
150	0xbe8c06da	-0.27348977
151	0xbdd0a420	-0.10187554
152	0xbcf1883f	-0.029483913
153	0xbe0a069d	-0.13479085
154	0xb9a482d5	-0.00031377995
155	0x3db0c9e3	0.08632257
156	0x3d5fcad1	0.05463678
157	0xbc848f8d	-0.016181732
158	0x3c87a00b	0.016555807
159	0xbccecf18	-0.025245234
160	0x3d812bd8	0.06307191
161	0x3cfe4115	0.031036893
162	0x3c6939ac	0.014234941
163	0xbf8d60cd	-1.1045166
164	0x3f389f30	0.721179
165	0x3f029f18	0.5102401
166	0xbebd1760	-0.36931896
167	0x3f3647c9	0.71203285
168	0x3ea50262	0.3222838
169	0xbe42e343	-0.19032006
170	0xbdd0cc86	-0.1019526
171	0x3d4dc1f5	0.0502338
172	0x3e12869b	0.1430916
173	0xbe3fc8b0	-0.187289
174	0x3d36b91f	0.04461014
175	0xbf4ee003	-0.80810565
176	0xbde6f77e	-0.11277674
177	0xbf2aabe2	-0.6666852
178	0x3ecd9ad6	0.40157193
179	0xbe06b346	-0.13154325
180	0xbde65e8c	-0.11248502
181	0x3b252173	0.002519694
182	0xbda98d28	-0.082788765
183	0x3a6b9682	0.0008986966
184	0x3cbcebf7	0.023061736
185	0xbc9ebae8	-0.019376233
186	0x3c9ecd0d	0.019384885
187	0xbf0b0bae	-0.54314697
188	0x3fb3fb02	1.4060977
189	0xbf82119f	-1.0161628
190	0x3d073456	0.033008896
191	0x3e1dd2a5	0.15412386
192	0x3e48e393	0.19618063
193	0xbd2b657f	-0.04184484
194	0xbe17fb66	-0.14841995
195	0x3a8e61c2	0.0010862874
196	0xbe088cca	-0.13334957
197	0x3cf0cc1f	0.029394208
198	0xbc8e0478	-0.017336115
199	0xbd4ba13a	-0.049714305
200	0x3e1be8c7	0.15225516
201	0xbe9fcba7	-0.31210062
202	0x3f240a7e	0.6407851
203	0x3e937efe	0.28807825
204	0x3d5b2005	0.053497333
205	0x3e43225a	0.19056073
206	0xbd91eff5	-0.07125846
207	0xbcfb6352	-0.030687008
208	0xbcc6a3e0	-0.024248064
209	0x3cedd1be	0.029030677
210	0x3bf9c31c	0.007622136
211	0x3c9dd703	0.019267565
212	0xbf8802e1	-1.0625879
213	0xbfe159b1	-1.7605497
214	0x3f41f813	0.75769156
215	0x3ea36505	0.3191301
216	0x3d1e7cce	0.03869324
217	0x3d974705	0.07386593
218	0x3d957703	0.0729809
219	0xbd21cd1a	-0.03950224
220	0xbe067ee7	-0.13134347
221	0x3e2c9f63	0.16857676
222	0xbd9c3641	-0.076275356
223	0xbe075e8b	-0.13219659
224	0xbdf23f25	-0.1182845
225	0x3dabfe23	0.08398082
226	0x3f150e5d	0.5822504
227	0x3e66d373	0.22541599
228	0x3da56ab4	0.08076993
229	0xbe785871	-0.24252488
230	0x3d943e48	0.07238442
231	0x3dedde2c	0.116146415
232	0x3e19a097	0.15002666
233	0x3e0e8c21	0.13920642
234	0xbc27fb3a	-0.010252768
235	0x3bb4d5aa	0.005518635
236	0x3ca1d865	0.019756505
237	0xbf3ba596	-0.7329954
238	0xbee7c57d	-0.4526786
239	0x3d193ec5	0.037413377
240	0x3f208daf	0.6271619
241	0xbe0b7ab7	-0.13621031
242	0x3f014a32	0.5050384
243	0xbd9ddf53	-0.07708611
244	0xbd66dae1	-0.056361083
245	0xbd76ca60	-0.060251594
246	0xbe68c725	-0.22732218
247	0x3d77267b	0.060339432
248	0xbd2cd771	-0.04219765
249	0x3d7dc004	0.0619507
250	0x3db01062	0.08596875
251	0xbec3e9f4	-0.3826443
252	0x3e00538e	0.12531874
253	0xbe4f767d	-0.20260043
254	0xbf2a93c9	-0.6663175
255	0xbec27435	-0.37979284

actor.0.bias f4 [64]
0	0xbf07a212	-0.52981675
1	0x3e59bd45	0.21263607
2	0xbf27bd36	-0.6552309
3	0x3d4319fc	0.047632203
4	0x3e2d261a	0.16909066
5	0xbe3ed87e	-0.18637273
6	0xbe59be1e	-0.2126393
7	0x3eabee56	0.33580273
8	0xbe243831	-0.1603706
9	0x3e6b23d7	0.2296289
10	0xbdbe04ab	-0.09278234
11	0x3e8dac86	0.27670687
12	0xbdfd2f3f	-0.12362527
13	0xbeca6b75	-0.39535108
14	0x3e528c49	0.20561327
15	0xbecffe70	-0.40623808
16	0xbe8ff742	-0.2811833
17	0xbdcf31ff	-0.10116958
18	0x3f0ff026	0.5622581
19	0xbe8979ae	-0.26850647
20	0xbedccd88	-0.43125558
21	0xbe7f7ca0	-0.24949884
22	0xbe12a2e9	-0.14319958
23	0xbe70820a	-0.23487106
24	0x3e35f4bb	0.17769139
25	0xbe90e6f1	-0.28301194
26	0x3e9937bf	0.29925343
27	0xbe7fa430	-0.24964976
28	0x3e0623d2	0.13099602
29	0x3d470cbd	0.048596133
30	0x3e579e47	0.21056472
31	0xbf03e423	-0.51519984
32	0xbe5daaaf	-0.21647142
33	0x3c516d1f	0.012782364
34	0xbee2a1be	-0.44264024
35	0xbf177375	-0.5916055
36	0xbf1e5f85	-0.618645
37	0xbe619ed7	-0.22033249
38	0x3f0905ef	0.5352468
39	0xbe1f3afd	-0.15549846
40	0x3ee2e542	0.44315535
41	0xbcd2b181	-0.025719406
42	0xbea15ab0	-0.31514502
43	0x3a984591	0.0011617412
44	0xbe480d42	-0.19536307
45	0xbeddad76	-0.43296403
46	0x3f08657b	0.53279847
47	0xbf28d7f8	-0.6595454
48	0xbdeb8d67	-0.1150158
49	0xbf1babeb	-0.608092
50	0x3e48ed6a	0.19621816
51	0xbcb892a4	-0.022530861
52	0xbc19f0b6	-0.009395769
53	0xbef93e43	-0.48680314
54	0x3d01c73b	0.03168414
55	0xbeacc0cf	-0.3374085
56	0x3e550b1b	0.20805018
57	0xbee39e74	-0.44456828
58	0x3df82abc	0.12117526
59	0xbe9226c8	-0.28545213
60	0xbed8b473	-0.42325172
61	0xbdb918a4	-0.09037903
62	0x3cb5fe37	0.022215946
63	0xbe2b57d2	-0.1673272

actor.2.weight f4 [64, 64]
0	0xbe3cebfc	-0.18449396
1	0x3d90d31e	0.070715174
2	0xbdf451bc	-0.11929652
3	0x3ea032f9	0.3128889
4	0x3da9cebe	0.08291386
5	0xbb9b678d	-0.004742569
6	0xbddc490f	-0.10756122
7	0x3e68bf6a	0.22729269
8	0xbe0e413a	-0.1389207
9	0x3e80f270	0.25184965
10	0x3cc2d1fc	0.023781769
11	0x3e3167f8	0.17324817
12	0x3e05ff50	0.13085675
13	0xbe537e0b	-0.2065355
14	0x3df886e7	0.121351056
15	0xbb32e25b	-0.0027295563
16	0xbe2b479c	-0.16726536
17	0xbc47fefa	-0.012206787
18	0x3d5d03ec	0.05395882
19	0x3ccd4917	0.025059266
20	0xbe427177	-0.18988596
21	0xbc208506	-0.00979734
22	0xbcbb1faa	-0.022842247
23	0xbdca2b32	-0.0987152
24	0xbe218667	-0.15773927
25	0x3d72a79c	0.059241876
26	0xbd8b2413	-0.0679399
27	0xbdd80ec4	-0.10549691
28	0x3d9913b3	0.074744605
29	0x3d0b3489	0.03398565
30	0xbbdc0330	-0.006714247
31	0xbe015ad0	-0.12632298
32	0x3d29666b	0.04135744
33	0x3e25ebf0	0.16203284
34	0xbde72dc9	-0.1128803
35	0xbe651489	-0.22371115
36	0xbeca937a	-0.3956564
37	0x3c430e69	0.011905291
38	0x3e5e32c0	0.21699047
39	0xbd478665	-0.048712153
40	0x3d72fdd5	0.059324104
41	0x3ceebf65	0.029143998
42	0x3d1d643d	0.038425673
43	0xbdaa6851	-0.08320678
44	0x3bde2e90	0.006780453
45	0x3dce9399	0.10086746
46	0x3e1ca91b	0.15298884
47	0x3e7ec409	0.24879469
48	0xbe1f8729	-0.15578903
49	0xbd53654f	-0.051610287
50	0xbd0be08c	-0.03414969
51	0xbdfd5f98	-0.12371749
52	0x3cc7f55e	0.024408992
53	0xbdd3a323	-0.1033385
54	0x3da754ed	0.08170495
55	0xbd013972	-0.031548925
56	0x3d5f4db6	0.05451747
57	0xbe0fa020	-0.14025927
58	0xbdac74a2	-0.084206834
59	0xbea7d6af	-0.32780978
60	0xbe37eabe	-0.17960641
61	0x3e54851d	0.20753904
62	0xbdd23796	-0.102645084
63	0xbe3d6983	-0.18497281
64	0x3c8de20a	0.017319698
65	0xbe96147d	-0.29312506
66	0x3ccfd30f	0.025369195
67	0x3e772a16	0.24137148
68	0x3e2d8caf	0.16948198
69	0x3d2beeb5	0.041975696
70	0xbce25ef3	-0.027633166
71	0x3d19d6a2	0.037558205
72	0xbbc8c180	-0.0061265826
73	0xbd87bdb1	-0.06627978
74	0xbdb6b2ca	-0.0892082
75	0x3dee05f0	0.11622226
76	0x3e577e29	0.2104422
77	0x3d2fa9e0	0.042886615
78	0x3d08989c	0.033348665
79	0x3e34670c	0.17617434
80	0xbc99797f	-0.018734692
81	0x3e68e9c5	0.22745426
82	0x3de56018	0.11199969
83	0x3e8f91a0	0.2804079
84	0x3d8d055c	0.06885788
85	0x3d41479d	0.047187436
86	0x3e6af342	0.22944358
87	0x3e4ce9a2	0.20010999
88	0xbe137a9c	-0.1440224
89	0x3e16f981	0.14743616
90	0x3ea0d99d	0.31416026
91	0xbe17a018	-0.14807165
92	0x3e20f7e1	0.15719558
93	0xbd78ae5e	-0.060713165
94	0x3e06e172	0.13171938
95	0x3bccc48e	0.006249017
96	0x3c7431ad	0.014904422
97	0xbe6770e8	-0.22601664
98	0xbd3e9c37	-0.046535697
99	0x3d5848cb	0.052803796
100	0xbbc98fc8	-0.0061511733
101	0x3d9c9bbb	0.07646891
102	0x3e0ee1ca	0.13953319
103	0x3e9cbce0	0.3061285
104	0xbdbe9c7f	-0.09307193
105	0x3d1aafba	0.037765242
106	0x3e10b5a9	0.14131798
107	0xbe4d7451	-0.20063902
108	0xbe07f3a4	-0.13276535
109	0xbe391d69	-0.18077625
110	0x3d9be3be	0.07611798
111	0xbd3f103e	-0.04664635
112	0xbd50deb1	-0.050993625
113	0xbe703eed	-0.23461504
114	0x3ca24690	0.019809037
115	0xbd9a825e	-0.07544397
116	0x3e998346	0.29982966
117	0xbd245304	-0.040118232
118	0x3de79356	0.11307399
119	0x3df21d8a	0.118220404
120	0xbe9c79b4	-0.30561602
121	0xbcf5ea60	-0.030018985
122	0x3e543276	0.20722374
123	0x3d397fb7	0.045287814
124	0x3e1d01b1	0.15332676
125	0x3e4729fb	0.19449608
126	0x3d3a378e	0.045463137
127	0xbe797e57	-0.24364601
128	0xbda52618	-0.080639064
129	0x3e94b8a3	0.29047117
130	0xbdc239e2	-0.094836965
131	0x3dd83af5	0.1055812
132	0xbc5b4bc7	-0.013384766
133	0xbe0acafd	-0.13553996
134	0xbd869be1	-0.065727
135	0x3c7598be	0.01499003
136	0xbdb4e1d7	-0.08832138
137	0x3d394138	0.045228213
138	0x3d387b92	0.04503972
139	0x3e17a0c3	0.1480742
140	0xbde47e90	-0.111569524
141	0xbe0ccf9c	-0.13751072
142	0x3c16da0b	0.009207259
143	0x3e554e9a	0.20830765
144	0xbc227b12	-0.009917038
145	0xbe17b3cc	-0.14814681
146	0x3c80f783	0.015743023
147	0xbd90112f	-0.070345275
148	0xbe089b18	-0.13340414
149	0x3dc79936	0.097460195
150	0x3d70ed71	0.05882019
151	0x3ea2f645	0.31828514
152	0xbcf63f21	-0.0300594
153	0xbd9f68fe	-0.077836975
154	0xbe706b6d	-0.2347848
155	0x3e2bf8c1	0.16794111
156	0xbdb338c7	-0.08751064
157	0x3d3dd405	0.046344776
158	0x3ddce55a	0.10785933
159	0x3d9ae0ff	0.07562446
160	0xbbd4ab5e	-0.006490155
161	0x3cf2a4b9	0.029619562
162	0x3e3075a6	0.1723238
163	0xbe7eda7c	-0.24888033
164	0xbe07aacb	-0.13248746
165	0x3dcac9b3	0.09901752
166	0x3b49d28c	0.0030795662
167	0x3cb11f19	0.021621274
168	0xbd27961e	-0.040914647
169	0xbc55e115	-0.013054152
170	0x3d7929c0	0.06083083
171	0x3c9f28a7	0.019428564
172	0x3daa0877	0.08302396
173	0x3dd5bf72	0.10436906
174	0x3e30ec72	0.17277697
175	0xbb97b14f	-0.004629291
176	0xbdc26921	-0.09492708
177	0xbd18ef5c	-0.037337646
178	0x3d282bf8	0.041057557
179	0xbdb25fa6	-0.0870965
180	0xbd4de163	-0.050263774
181	0x3d2a745c	0.041614875
182	0x3d3fa5e1	0.046789054
183	0x3e1412d4	0.14460307
184	0x3d9df322	0.077123895
185	0xbe82011e	-0.25391477
186	0x3dd15428	0.1022113
187	0xbe837694	-0.25676405
188	0x3d9e973e	0.07743691
189	0x3d9c4456	0.076302215
190	0x3e27002e	0.16308662
191	0x3cf91c32	0.030408952
192	0x3ccdefeb	0.025138816
193	0xbe318df1	-0.17339303
194	0xbdd72348	-0.10504776
195	0x3e7479c2	0.23874572
196	0x3e07c9a0	0.13260508
197	0xbd3662a9	-0.044527683
198	0x3d82b248	0.06381661
199	0x3e149da3	0.14513259
200	0xbe58e9a1	-0.21182872
201	0xbae26068	-0.0017271163
202	0xbdaa6111	-0.08319295
203	0xbd9d17f2	-0.07670583
204	0x3e467fcf	0.19384693
205	0x3ce7dd62	0.028303806
206	0xbca4cd02	-0.020117287
207	0x3e35f6dc	0.1776995
208	0x3d82a888	0.06379801
209	0x3e2201f2	0.15821055
210	0xbe5223c9	-0.20521463
211	0x3e2294e1	0.15877105
212	0x3dc39cae	0.09551369
213	0x3ce10af6	0.027471047
214	0x3c0c617a	0.008568162
215	0x3c41c1c0	0.011825979
216	0xbe8fe085	-0.28100982
217	0xbdaed3fc	-0.085365266
218	0xbd979301	-0.07401086
219	0xbdac1ace	-0.0840355
220	0x3d940433	0.072273634
221	0x3e0b3371	0.13593842
222	0x3d0026c7	0.03128698
223	0xbcacd0f2	-0.021095727
224	0x3d9375b9	0.07200188
225	0x3e2a7d13	0.16649275
226	0x3dac5ec4	0.084165126
227	0x3e829084	0.25500882
228	0x3d9810ff	0.07425117
229	0xbd940625	-0.072277345
230	0xbc2af60d	-0.01043464
231	0xbd3b0414	-0.045658186
232	0x3d9d8f1d	0.07693312
233	0xbd87f696	-0.066388294
234	0x3e0baffa	0.13641348
235	0x3c386662	0.011254879
236	0x3bf3b063	0.0074367984
237	0xbe3fb8e7	-0.18722878
238	0xbde9ee82	-0.11422445
239	0xbeff0e56	-0.49815625
240	0x3d80a60d	0.06281672
241	0x3e604f57	0.21905266
242	0xbdc79fad	-0.097472526
243	0x3d0628f4	0.0327539
244	0xbe50988a	-0.20370689
245	0x3e689cd5	0.22716077
246	0xbd11e877	-0.035622086
247	0xbe942f09	-0.28942135
248	0x3dc78469	0.09742052
249	0x3dd086d9	0.1018197
250	0xbe2d3301	-0.16913988
251	0x3d14c72f	0.03632277
252	0x3db8de31	0.09026755
253	0xbd8c6f1a	-0.068571284
254	0x3da55cf5	0.08074371
255	0xbdcbeaf3	-0.099569224

actor.2.bias f4 [64]
0	0x3e3aac9e	0.1822991
1	0xbd357960	-0.044305205
2	0x3e63fc57	0.22264229
3	0xbe3f0f32	-0.1865814
4	0xbeab26ff	-0.3342819
5	0x3e6537ab	0.22384517
6	0xbec18c8b	-0.37802538
7	0x3d216c33	0.039409827
8	0xbe6edcd2	-0.23326424
9	0x3e360704	0.17776114
10	0x3dce3b94	0.100699574
11	0xbe9c2129	-0.3049405
12	0x3e406896	0.18789896
13	0x3d152fc7	0.036422517
14	0xbeb22894	-0.34796584
15	0x3e0fd06c	0.1404435
16	0x3e4272fc	0.18989176
17	0x3cec1673	0.028819298
18	0x3e30f24e	0.17279932
19	0xbcca59a7	-0.024700953
20	0xbe7094ee	-0.23494312
21	0x3e0b1d4f	0.13585399
22	0xbddf7719	-0.10911388
23	0xbea20f65	-0.3165237
24	0xbe2c9e8a	-0.16857353
25	0x3c81b5d1	0.015833767
26	0x3e6517e1	0.2237239
27	0xbea3446d	-0.31888142
28	0x3e254ac6	0.16141805
29	0xbeb7361d	-0.35783473
30	0xbcf367fd	-0.029712671
31	0x3e4189ce	0.18900225
32	0xbe1c7f88	-0.15283024
33	0x3e65e0d5	0.22449048
34	0xbec356c9	-0.3815215
35	0xbe823516	-0.25431126
36	0x3e98211d	0.29712763
37	0xbea53e1f	-0.32273957
38	0xbd8d919d	-0.06912539
39	0xbec64e97	-0.38731834
40	0xbdc64fd4	-0.09683195
41	0xbc041748	-0.008062191
42	0xbda407ab	-0.08009275
43	0xbec9cce9	-0.39414147
44	0xbeb11a9d	-0.34590617
45	0xbe62f7d6	-0.22164854
46	0xbe0b8728	-0.13625777
47	0xbeaf5981	-0.34247974
48	0x3e84f82f	0.259706
49	0xbe17b760	-0.14816046
50	0x3e9aebf6	0.3025815
51	0xbf1151fa	-0.5676571
52	0xbea163df	-0.31521508
53	0xbe608d42	-0.21928886
54	0x3e1a2113	0.1505168
55	0xbdbbb66e	-0.09165655
56	0x3d16b009	0.036788974
57	0xbd2b1bb2	-0.04177446
58	0xbe4a52cd	-0.19758148
59	0xbe449d38	-0.19200599
60	0x3e7eb973	0.24875431
61	0x3d071672	0.03298039
62	0xbecd9150	-0.40149927
63	0xbea0b203	-0.31385812

actor.4.weight f4 [6, 64]
0	0x3ccbc722	0.024875227
1	0x3ccff4f6	0.025385361
2	0xbd5955dd	-0.0530604
3	0x3cf0de38	0.029402837
4	0xbd80ef91	-0.06295694
5	0xbecdde57	-0.40208694
6	0x3e5e345c	0.21699661
7	0xbd09d9af	-0.033654865
8	0xbd88edd8	-0.0668599
9	0x3d5c6883	0.053810608
10	0xbe4450f9	-0.19171514
11	0x3987d395	0.00025906847
12	0xbd8a2177	-0.06744664
13	0xbbb0de43	-0.0053975894
14	0x3d46b924	0.048516408
15	0xbce19c8a	-0.027540464
16	0xbe1ae2c3	-0.15125565
17	0xbe0bad7c	-0.13640398
18	0x3d2be3fb	0.041965466
19	0xbb3d13af	-0.0028850844
20	0xbd92b1cd	-0.07162819
21	0x3d9faac5	0.077962436
22	0xbd18f6ea	-0.03734485
23	0xbe2391bb	-0.1597356
24	0x3e86bb50	0.26314783
25	0x3d92a18e	0.0715972
26	0xbc337d69	-0.010955193
27	0x3e3c555a	0.18391934
28	0x3cc96356	0.0245835
29	0x3e7752b2	0.2415264
30	0xbd9af94e	-0.07567082
31	0xbd658b04	-0.05604078
32	0x3c367d58	0.011138283
33	0xbe1cb94d	-0.15305062
34	0x3e8f8424	0.28030503
35	0x3dbf33ea	0.09336074
36	0xbe0d0297	-0.13770519
37	0xbe39bc88	-0.18138325
38	0x3d309536	0.04311105
39	0x3d003172	0.031297155
40	0xbe13fce6	-0.14451942
41	0xbd81f1ab	-0.06344923
42	0xbd308cbf	-0.043102976
43	0x3e85f5e6	0.26164168
44	0x3d7fb1f3	0.062425565
45	0xbdac4935	-0.08412401
46	0xbbf2779b	-0.007399512
47	0x3ea8631e	0.3288812
48	0xbdeefb3f	-0.11669015
49	0x3ddc848c	0.10767469
50	0xbe427c2c	-0.1899268
51	0x3e8d556c	0.27604234
52	0x3dd1ba0a	0.10240562
53	0x3d9935e4	0.07480982
54	0x3d806188	0.062686026
55	0xbb75a907	-0.0037484781
56	0x3e1a10cd	0.15045471
57	0xbd33cc04	-0.043895736
58	0x3e295c8e	0.16539213
59	0x3df23d12	0.118280545
60	0x3da51f0a	0.08062561
61	0x3dbf88f6	0.09352295
62	0x3e9ab255	0.30214182
63	0xbd28dbb4	-0.04122515
64	0xbe93a2ca	-0.28835136
65	0x3ca32321	0.019914212
66	0x3d200596	0.039067827
67	0x3dcc2b97	0.099692516
68	0xbd95ae83	-0.07308676
69	0x3daa869a	0.083264545
70	0x3e587874	0.21139699
71	0x3d2cff41	0.042235617
72	0x3e9a27ab	0.3010839
73	0x3e3796a5	0.1792856
74	0x3df7654c	0.12079868
75	0x3ef4b258	0.47792315
76	0x3e2ce155	0.16882832
77	0x3db2255c	0.08698532
78	0xbcd373d1	-0.025812062
79	0xbde80f4e	-0.11331044
80	0x3d470741	0.048590902
81	0x3cd9f6dd	0.026606971
82	0xbe8f5276	-0.279926
83	0x3e20b1dc	0.15692848
84	0xbcb5cc6e	-0.022192206
85	0xbd2b395d	-0.041802753
86	0x3e37b3d1	0.17939688
87	0xbde234b8	-0.110452116
88	0x3e37e0d5	0.1795686
89	0x3e5e3db8	0.21703231
90	0xbbcb8ede	-0.0062120995
91	0xbdf903ee	-0.12158953
92	0xbd90e529	-0.07074959
93	0x3e97d20b	0.29652438
94	0xbbda020e	-0.006653077
95	0x3c1ea6d0	0.009683326
96	0x3d64f61f	0.055898782
97	0xbc15a5ab	-0.009133737
98	0x3d2afb5f	0.041743632
99	0xbc7d140f	-0.015446677
100	0x3dcd73dc	0.10031864
101	0xbea795d2	-0.3273149
102	0xbc93a73c	-0.01802408
103	0xbe35ee2d	-0.17766638
104	0xbe25a5fd	-0.16176601
105	0xbe608891	-0.21927096
106	0xbaae8254	-0.0013313987
107	0x3e3ff20d	0.18744679
108	0xbe4483b6	-0.19190869
109	0x3d9e7dd3	0.07738843
110	0x3ed3fe23	0.41404828
111	0xbd513627	-0.051077034
112	0x3e580cd8	0.2109865
113	0xbde335b0	-0.110942245
114	0xbd9f8ce5	-0.077905454
115	0x3f076006	0.52880895
116	0xbd55ee68	-0.052229315
117	0x3d8a9abd	0.06767795
118	0xbc3d73f3	-0.011563289
119	0xbd95f402	-0.073219314
120	0x3d743534	0.05962105
121	0xbdee4c3d	-0.11635635
122	0xbed5ad7b	-0.41733918
123	0xbd6e5fb3	-0.058196735
124	0x3dbffce6	0.093744084
125	0xbe00fd83	-0.12596707
126	0x3e17c0ff	0.14819716
127	0x3ca63dc6	0.020293128
128	0x3e9be41a	0.30447465
129	0x3dbfabb5	0.093589224
130	0x3e0a66db	0.13515799
131	0xbdc304d7	-0.095224075
132	0xbe557f79	-0.20849408
133	0x3d693336	0.056933604
134	0xbe4091fb	-0.18805687
135	0x3caba66b	0.020953378
136	0xbe45a176	-0.19299874
137	0x3e7b44e3	0.24537997
138	0x3c47687c	0.012170907
139	0xbdf084aa	-0.11744054
140	0x3da6ac2b	0.08138307
141	0xbcc3ed0c	-0.023916744
142	0xbe27efae	-0.16400024
143	0x3d80b3bc	0.062842816
144	0x3d9954bb	0.07486864
145	0x3e1de868	0.15420687
146	0x3dec85f2	0.115489855
147	0x3c8e3fca	0.017364401
148	0xbe07e3f0	-0.13270545
149	0x3e091363	0.13386302
150	0xbdee55df	-0.11637472
151	0xbe93aec2	-0.28844267
152	0x3df589e2	0.1198919
153	0x3cfe6e41	0.031058433
154	0x3e11ce36	0.1423882
155	0xbdadccee	-0.08486353
156	0x3dcf4629	0.10120804
157	0xbdef8be5	-0.11696605
158	0x3d98d0c0	0.07461691
159	0x3d676e1e	0.0565015
160	0x39e45596	0.00043551315
161	0x3cb7cb6d	0.022435868
162	0xbe449e7c	-0.19201082
163	0xbc0d5cc4	-0.008628074
164	0x3e18e5b1	0.1493137
165	0xbe975f39	-0.29564837
166	0x3d804f45	0.062651195
167	0xbda467a9	-0.08027584
168	0xbcbef7d8	-0.02331154
169	0xb9f552af	-0.00046791646
170	0x3c747e2f	0.014922663
171	0xbe4ef9d0	-0.20212483
172	0xbd6d6fa9	-0.057967816
173	0xbe1b15ac	-0.15144986
174	0xbd337edd	-0.043822158
175	0xbe096240	-0.13416386
176	0x3e3c4515	0.18385728
177	0x3c81650d	0.015795255
178	0x3d923f3f	0.071409695
179	0xbe9e1021	-0.3087168
180	0xbe0d9c08	-0.13829052
181	0xbd98e0c5	-0.074647464
182	0x3e91eb54	0.28499854
183	0x3b153846	0.0022769137
184	0x3d2d552f	0.042317566
185	0x3d80d6f8	0.06291002
186	0xbd5e7f96	-0.054320894
187	0xbd7e145f	-0.062031146
188	0x3e33f308	0.17573178
189	0x3d1f18b2	0.03884191
190	0xbdb5775c	-0.088606566
191	0xbd626cbf	-0.05527949
192	0xbe570a9b	-0.2100014
193	0x3e2c4eab	0.16826884
194	0xbe71531a	-0.23566857
195	0x3e753d59	0.23949184
196	0x3ac5cd2c	0.0015091053
197	0xbc3d0e4f	-0.011539056
198	0x3dc19c51	0.09453643
199	0x3cabdf62	0.02098054
200	0xbdc412c2	-0.0957389
201	0x3be1a0dd	0.0068856315
202	0x3c49e257	0.01232203
203	0x3c818f0c	0.01581528
204	0xbe18693e	-0.14883897
205	0xbe0757b3	-0.13217048
206	0x3e1ac110	0.1511271
207	0x3ce3aa5d	0.027791196
208	0x3e56a9d5	0.20963223
209	0x3e92dea4	0.28685486
210	0x3cff4cbf	0.031164525
211	0xbe15ffec	-0.14648408
212	0x3dc9c97a	0.09852882
213	0xbde27d79	-0.11059088
214	0x3e21c11e	0.15796325
215	0xbe1d49ae	-0.15360138
216	0x3b15c9f4	0.002285597
217	0xbd3d0db7	-0.046155658
218	0x3d33f65a	0.04393611
219	0x3e91b0f6	0.28455323
220	0x3e593585	0.21211822
221	0x3dae97e2	0.08525063
222	0x3d512193	0.05105741
223	0xbc4fc051	-0.012680129
224	0x3dd0183f	0.101608746
225	0xbd8a4648	-0.06751686
226	0xbdbaf589	-0.09128863
227	0x3d917626	0.07102613
228	0xbca258b3	-0.019817686
229	0x3b95f20d	0.004575974
230	0x3cb219a5	0.021740744
231	0x3e52d068	0.20587313
232	0x3dbb6ca1	0.09151579
233	0x3e906444	0.28201497
234	0x3b2d3934	0.00264318
235	0x3e03e452	0.12880066
236	0x3e8ba818	0.27276683
237	0x3a94290a	0.0011303734
238	0xbd862975	-0.06550876
239	0xbe4674a8	-0.19380438
240	0x3ea720e9	0.32642296
241	0x3c8da8ff	0.017292498
242	0x3b9fae3b	0.004873065
243	0xbdb09d2e	-0.0862373
244	0xbd66e4b7	-0.056370463
245	0xbe2a6b68	-0.16642535
246	0x3db5815f	0.08862566
247	0x3e7e9949	0.24863161
248	0xbdfaea4e	-0.12251721
249	0xbcc81101	-0.02442217
250	0x3e1952d3	0.14973001
251	0x3dd60d9f	0.10451817
252	0xbdd7f04f	-0.10543882
253	0xbd82da9b	-0.06389352
254	0x3e59da08	0.21274579
255	0xbd9f3c42	-0.07775165

actor.4.bias f4 [6]
0	0xbeb0ced7	-0.34532806
1	0x3d3ac992	0.04560239
2	0x3ea56782	0.32305533
3	0xbe72313a	-0.23651591
4	0xbdc28498	-0.094979465
5	0xbe2a2abf	-0.16617869
